models/16_model_64_window.pt (torch, 5487 bytes, 6 tensors)

module_1.bias f4 [16]
0.93720424 -1.1625501 -0.18260601 -0.16600245 1.9284725 0.48070478 1.0899671 -0.81052035
-0.27335376 -1.0777048 0.04699943 1.087686 -1.0051101 0.6358129 -0.57864195 1.217117
00000000: 9eec 6f3f 71ce 94bf 12fd 3abe 8cfc 29be
00000010: 30d8 f63f f01e f63e 0b84 8b3f 437e 4fbf
00000020: 06f5 8bbe 3bf2 89bf 7982 403d 4b39 8b3f
00000030: 73a7 80bf a2c4 223f e121 14bf 7dca 9b3f

module_1.lin.weight f4 [16, 3]
-0.3665724 -0.23394044 -0.741931 -0.026004346 -1.2142674 2.5378432 0.41286218 1.648243
2.190024 -0.20887773 2.857197 -0.5108141 0.15452623 0.22482474 0.9942951 -0.5751723
1.098648 -0.17617732 -0.11600023 -0.15869793 -0.6115676 -0.12075668 3.411474 0.6136178
2.1773045 -0.85774285 -1.1582836 -3.7286115 -0.53081816 -1.1437063 -0.019054301 3.6330569
-0.35002145 -1.1951015 1.7969135 -0.06368174 3.239111 0.28495196 0.21103178 -0.9375601
-4.1888256 -0.73903346 0.32245076 -2.7602344 1.3134596 -0.1411543 -3.4061856 0.06510379
00000000: 61af bbbe 158e 6fbe 31ef 3dbf 1107 d5bc
00000010: 1d6d 9bbf 066c 2240 ac62 d33e a0f9 d23f
00000020: 5a29 0c40 0be4 55be 51dc 3640 b6c4 02bf
00000030: 203c 1e3e 7538 663e 208a 7e3f 7e3e 13bf
00000040: 7fa0 8c3f d467 34be 8791 edbd b681 22be
00000050: b28f 1cbf 474f f7bd 9755 5a40 0e16 1d3f
00000060: f558 0b40 0995 5bbf a342 94bf 92a1 6ec0
00000070: b3e3 07bf f864 92bf c417 9cbc 0184 6840
00000080: 0336 b3be 16f9 98bf 4301 e63f 926b 82bd
00000090: 984d 4f40 39e5 913e b718 583e f003 70bf
000000a0: dc0a 86c0 4c31 3dbf 4418 a53e aea7 30c0
000000b0: 721f a83f c18a 10be f2fe 59c0 2355 853d

module_3.bias f4 [16]
0.6839694 -1.0244423 0.8479392 0.009916352 -1.0500175e-12 -0.45664966 -2.6446297e-12 1.3021425
0.05057985 -0.18338376 1.0928279 0.22774944 0.8545136 -0.16554374 -0.1760182 1.1867446
00000000: 9e18 2f3f ed20 83bf 8b12 593f 3278 223c
00000010: dec6 93ab fccd e9be 6a19 3aac 9bac a63f
00000020: d12c 4f3d f4c8 3bbe c9e1 8b3f 2637 693e
00000030: 67c1 5a3f 4c84 29be 1d3e 34be 3fe7 973f

module_3.lin.weight f4 [16, 16]
0.84857684 -0.21964961 -0.11931951 -0.33597097 0.22115761 0.4886595 0.66068614 -0.78776777
0.4257056 0.2884212 -0.40245494 0.8199077 -0.47382885 -2.2163112 -0.108962685 -2.4721317
-1.4478337 0.98456204 1.6125505 0.19748566 -1.1055781 0.05733622 -1.4135193 0.6308671
0.32828912 1.9120158 0.5289688 -0.061260603 1.9719601 -1.0870136 -0.40838328 -1.3039774
0.9142887 -0.41795474 -0.24164414 0.4964852 0.11800398 0.06681326 0.9069197 -0.35927096
1.1352242 -2.2383604 0.6442693 -0.22276549 -1.0215764 -0.79569006 0.65412384 -1.3245535
-0.18675286 -0.5469077 0.46266848 -1.288779 -0.16751637 -0.66604877 -0.07514318 -0.8387866
1.1610098 0.0022393016 -1.3308796 -0.80013657 1.6635768 -1.525478 -0.75760734 -1.5180844
-1.2268174e-13 -2.2694937e-18 -1.4164345e-12 -9.124317e-11 -2.0335571e-07 -3.4488762e-12 -4.8378445e-12 -5.6013465e-11
-9.153498e-13 -6.784647e-10 -1.6524236e-08 -2.194108e-07 -5.670106e-15 -1.9417712e-08 -8.4986243e-17 -2.7734254e-08
-0.113690086 0.10700122 -0.8797003 0.26347563 -1.0619526 0.23102733 -0.15701453 0.13751657
0.56861544 2.5450509 0.21209101 0.45214778 1.136628 -1.8116839 -0.28001523 -1.1295217
-2.1650374e-14 -1.4431201e-20 -7.0848e-14 -3.490274e-13 -3.4698367e-08 -2.4695391e-12 -1.153376e-12 -3.720906e-12
-2.9755685e-14 -2.2060572e-13 -1.5276323e-10 -7.903032e-08 -5.11034e-24 -3.5763364e-08 -1.2195177e-17 -4.458063e-08
0.3531689 -0.6505169 0.4852641 -0.82050633 2.0283113 0.30781785 0.51397836 -1.1575403
-0.25979817 0.0076162955 -0.8566955 0.61428297 -0.25337818 -1.996374 0.510695 -0.53527784
0.27256408 0.4938851 -0.08200389 -1.7778785 0.042297523 -0.38961896 0.2895558 -1.541857
0.21280603 1.5821049 -1.907343 0.2960328 -0.41860652 0.40787935 -1.6075047 -0.2074521
-0.3059856 0.3642425 -1.0773449 -0.1255908 -0.18030977 -0.5511159 -0.39861056 0.3445636
1.5318729 -0.26207986 0.27722174 -1.1195275 2.1763022 -1.0223919 -0.847401 -2.456702
0.2815019 -0.23347211 -0.34288394 -1.8588337 1.7247975 0.43159968 0.6035669 -1.6073464
-0.018242622 0.3148355 -2.4039598 1.080275 0.37257105 -1.3054129 -0.73329014 0.44513032
0.8001362 -1.1387564 -1.0997412 -0.97698945 -0.5522063 0.7723584 0.79312944 -1.7689649
-0.49365747 1.8406472 -1.3887703 1.0530692 -0.1325888 -0.34397402 -1.742375 -0.7273182
0.9477527 -0.6881934 0.06360924 -1.4180005 1.4350902 0.43935132 0.8694188 -1.3335656
0.3832191 0.5291243 -1.9063127 0.82461613 -0.20473629 -0.53698915 -2.4117765 0.5636865
-0.37270284 2.0738559 0.37428537 -0.36693105 0.4652519 -1.5045272 -0.4845564 -0.061705567
-1.6404781 1.0284172 -0.34080082 -2.0951145 0.74602854 0.8301805 1.2952957 0.24972187
-0.5319793 1.1893795 -1.6506287 -0.922909 0.14216048 -0.6543294 -0.46344078 -1.504893
0.92689574 1.9897331 -1.7942084 0.052709654 2.1523468 -0.611648 0.2738824 0.10819862
0.18618856 0.4131227 1.0265031 -1.2845427 1.4721764 -0.018121768 0.43604416 -1.8984218
1.3654246 0.40256405 -1.6632866 0.38154027 0.1451313 -1.8204814 -1.0986125 -0.10038458
00000000: 553c 593f d4eb 60be ca5d f4bd 6304 acbe
00000010: 2477 623e 9431 fa3e ba22 293f 26ab 49bf
00000020: 16f6 d93e f2ab 933e 930e cebe 79e5 513f
00000030: b299 f2be 0bd8 0dc0 d427 dfbd 6837 1ec0
00000040: 9d52 b9bf 420c 7c3f 0e68 ce3f ae39 4a3e
00000050: 9583 8dbf 62d9 6a3d 33ee b4bf 8280 213f
00000060: 8315 a83e efbc f43f 806a 073f 66ec 7abd
00000070: 3069 fc3f 4323 8bbf 9d17 d1be bbe8 a6bf
00000080: d30e 6a3f 2afe d5be 9071 77be 4f33 fe3e
00000090: 12ac f13d 64d5 883d e42b 683f 5df2 b7be
000000a0: 074f 913f 4c41 0fc0 d5ee 243f a31c 64be
000000b0: 04c3 82bf 58b2 4bbf a974 273f f88a a9bf
000000c0: 243c 3fbe 2502 0cbf e2e2 ec3e b6f6 a4bf
000000d0: 6989 2bbe 2c82 2abf abe4 99bd b8ba 56bf
000000e0: f89b 943f 3fc1 123b 435a aabf c0d5 4cbf
000000f0: 16f0 d43f dd42 c3bf 8ef2 41bf 9750 c2bf
00000100: 9b20 0aaa 8675 27a2 6e58 c7ab 57a5 c8ae
00000110: fe59 5ab4 6eb1 72ac 6e37 aaac 8e59 76ae
00000120: f4d2 80ab b57e 3ab0 2ef1 8db2 2e97 6bb4
00000130: 7f49 cca7 00cc a6b2 06f7 c3a4 453c eeb2
00000140: 59d6 e8bd 7523 db3d 0a34 61bf 47e6 863e
00000150: 10ee 87bf 6e92 6c3e 6bc8 20be 25d1 0c3e
00000160: c890 113f 1de2 2240 632e 593e ea7f e73e
00000170: 077d 913f 42e5 e7bf 285e 8fbe 2b94 90bf
00000180: 5d02 c3a8 814c 889e 1789 9fa9 267c c4aa
00000190: 4207 15b3 43c7 2dac c052 a2ab f1ea 82ac
000001a0: f801 06a9 4561 78aa 07f7 27af 61b7 a9b3
000001b0: 5bb2 c598 3c9a 19b3 18f6 60a3 ec78 3fb3
000001c0: 8ed2 b43e 4788 26bf 8974 f83e b40c 52bf
000001d0: dacf 0140 4d9a 9d3e 1694 033f 482a 94bf
000001e0: 4404 85be 1e92 f93b 6550 5bbf a641 1d3f
000001f0: c9ba 81be 2f89 ffbf e8bc 023f f807 09bf
00000200: 858d 8b3e 82de fc3e a8f1 a7bd 8691 e3bf
00000210: 2b40 2d3d 237c c7be a840 943e 925b c5bf
00000220: d3e9 593e 6a82 ca3f d123 f4bf 9c91 973e
00000230: 9853 d6be 90d5 d03e b7c2 cdbf 536e 54be
00000240: 25aa 9cbe fe7d ba3e 70e6 89bf e09a 00be
00000250: 20a3 38be ee15 0dbf af16 ccbe a46a b03e
00000260: 6914 c43f 552f 86be 02f0 8d3e ad4c 8fbf
00000270: 8948 0b40 bddd 82bf 46ef 58bf 9b3a 1dc0
00000280: 0421 903e 5013 6fbe 7c8e afbe 43ee edbf
00000290: 2ac6 dc3f a2fa dc3e 5c83 1a3f 87bd cdbf
000002a0: 8d71 95bc 1e32 a13e 7ada 19c0 7446 8a3f
000002b0: a2c1 be3e c517 a7bf e7b8 3bbf 1fe8 e33e
000002c0: bad5 4c3f c5c2 91bf 52c4 8cbf fb1b 7abf
000002d0: 645d 0dbf 48b9 453f 880a 4b3f 716d e2bf
000002e0: acc0 fcbe 549a eb3f 3ac3 b1bf f9ca 863f
000002f0: 5cc5 07be 5d1d b0be 2506 dfbf 8731 3abf
00000300: ec9f 723f 712d 30bf 9045 823d 0a81 b5bf
00000310: 09b1 b73f a8f2 e03e 3b92 5e3f 47b2 aabf
00000320: 4b35 c43e b174 073f 0e02 f4bf 0b1a 533f
00000330: 64a6 51be 1f78 09bf 8c5a 1ac0 c24d 103f
00000340: e8d2 bebe 0eba 0440 55a2 bf3e 63de bbbe
00000350: 7f35 ee3e 5994 c0bf c717 f8be fabe 7cbd
00000360: 30fb d1bf 2da3 833f 727d aebe 5b16 06c0
00000370: bafb 3e3f b686 543f 40cc a53f 17b7 7f3e
00000380: cc2f 08bf 963d 983f cd47 d3bf c443 6cbf
00000390: 8492 113e 2282 27bf 1c48 edbe 55a0 c0bf
000003a0: 0a49 6d3f 93af fe3f 9fa8 e5bf 14e6 573d
000003b0: 0dc0 0940 f794 1cbf 503a 8c3e 3d97 dd3d
000003c0: 37a8 3e3e d284 d33e 7464 833f e56b a4bf
000003d0: 4770 bc3f 1a74 94bc 2e41 df3e 7cff f2bf
000003e0: 3cc6 ae3f e01c ce3e 93e6 d4bf 3f59 c33e
000003f0: 4d9d 143e 8905 e9bf 569f 8cbf 6e96 cdbd

module_8.weight f4 [12, 32]
-0.09865781 -0.03784976 0.16566756 0.08853694 -0.96810967 -0.13179061 -0.20333612 0.19407253
-0.29604292 -0.6235602 0.15658712 -0.14391902 -0.25430357 0.7903288 0.5949145 0.4315871
0.45751894 1.426424 -1.5370036 1.8481551 -1.5719002e-05 1.4118606 -0.0015005812 -0.76064426
-1.6802865 1.0195799 -0.9185704 0.9504963 -0.957731 -0.021906355 -2.1992793 0.3341559
0.28892037 -0.09487444 -0.7389061 -1.21654 -0.0751387 -0.94751304 0.23773426 -1.0361761
-0.11847481 -0.21909961 -1.7391382 -1.5033038 -0.37341914 0.22168422 -0.45830536 0.6144135
-1.2525555 -2.7996254 -1.5582868 0.1297138 2.1672407e-14 -0.20517428 1.1828288e-25 -1.6092335
1.1324565 -0.73024154 1.4160278 0.137691 1.2591716 0.31728908 0.93760085 0.69634503
-0.4390138 0.35780618 0.71058685 0.14231323 0.17364894 -0.14590065 -0.4705498 0.30876884
-1.2243481 0.078827426 0.20925178 -0.21411023 -0.47946498 0.42382833 0.0459226 -0.04122539
-1.4526803 -0.33629367 0.4138517 1.846076 3.1727915e-05 -0.4737519 0.00041642922 -0.2603459
1.4668158 1.2835981 0.09784534 1.130986 0.32481226 -0.20418231 -0.95935255 0.2073481
0.3478568 -0.4554363 -0.09559333 -0.21957044 0.62188834 -0.06792609 0.40826383 0.003540319
0.22486204 0.038927197 -0.061504416 -0.105016544 0.9811586 -0.017201103 -0.11047431 -0.1431891
0.5585271 -0.42914695 0.5245775 -0.7136888 -0.0017899964 0.26576257 1.6228564e-06 0.7981685
0.96112835 -0.36470458 -1.8720708 -1.8548148 -1.7801113 0.61916286 -0.06507569 -1.4251504
-0.06471613 -0.21502005 -0.17256089 -0.20189351 0.30982587 -0.119912125 0.09722222 -0.18627721
-0.055956475 1.0282061 -0.18347624 -0.12431217 0.08059116 -0.84082115 -0.31916535 -0.72023
0.071635485 -0.23472075 -0.19311458 0.5216603 -0.00015045048 0.54767203 -0.00017626162 0.525755
-1.2641281 1.4892546 -1.0417429 1.4763346 -0.36439076 0.6099391 -1.2149179 0.3669179
-0.031847548 0.94295067 -0.75102836 0.562008 -0.39745116 0.05209361 -0.011906921 -0.4912147
0.700454 -0.09874804 0.36946172 0.061721537 0.6429704 -1.8503445 0.34686834 -1.2840924
1.3385043 -0.76374626 1.8346537 -2.086049 -2.2865494e-05 0.045862913 -5.8752303e-06 -0.41964677
0.14179638 -2.124671 0.59488547 -2.6764934 -2.2442946 1.5096108 1.4059138 -0.68539095
-0.24108075 0.7410906 -0.07350383 0.7749939 -0.46523806 0.35491872 -0.11671532 0.7303025
0.2793652 0.13027869 0.48971632 0.2979995 -0.2417199 -0.84675354 0.012285832 -0.15475504
-1.5438212 -1.057636 0.6219929 0.7817382 0.0011944257 -1.0485053 5.2547044e-10 -0.60933065
0.13897865 -1.1773131 1.676002 0.8212499 1.1453362 -0.3921617 0.46909603 1.688494
-0.36536914 0.59010303 -0.9586723 0.16332479 0.3225453 -0.010135482 -0.28153837 0.14796111
0.030622443 -0.6605132 0.107704006 -0.14986534 -0.33020705 0.0558454 0.40942407 -0.077947386
-0.39319575 0.30515656 0.6048452 -0.43772417 -1.8870924e-05 -0.7649782 -0.00035978475 -0.7242692
1.033866 0.25659773 1.0637034 0.98242235 0.6768444 -0.07861517 0.77248573 -2.1265519
00000000: 1b0d cabd 5a08 1bbd c2a4 293e db52 b53d
00000010: 09d6 77bf 1ef4 06be 5837 50be f3ba 463e
00000020: f092 97be a4a1 1fbf 6058 203e 825f 13be
00000030: 1434 82be fd52 4a3f 514c 183f fcf8 dc3e
00000040: ec3f ea3e 1095 b63f 89bc c4bf 5990 ec3f
00000050: 4ddc 83b7 d9b7 b43f 26af c4ba 95b9 42bf
00000060: a113 d7bf 9881 823f 6e27 6bbf ba53 733f
00000070: dc2d 75bf f574 b3bc fec0 0cc0 7b16 ab3e
00000080: 5fed 933e 884d c2bd f328 3dbf 95b7 9bbf
00000090: 52e2 99bd 3790 72bf 9c70 733e 6ba1 84bf
000000a0: eca2 f2bd a65b 60be 159c debf 426c c0bf
000000b0: cb30 bfbe 3001 633e 00a7 eabe 344a 1d3f
000000c0: bd53 a0bf 102d 33c0 f175 c7bf b2d3 043e
000000d0: 2b35 c328 3519 52be 576d 1216 5dfb cdbf
000000e0: 56f4 903f 1cf1 3abf 6640 b53f dffe 0c3e
000000f0: 892c a13f b773 a23e 9c06 703f ab43 323f
00000100: 6bc6 e0be 5f32 b73e 05e9 353f 8fba 113e
00000110: 07d1 313e fb66 15be e7eb f0be f316 9e3e
00000120: 70b7 9cbf 4670 a13d 1946 563e b63f 5bbe
00000130: 6f7c f5be 0700 d93e 5619 3c3d f4db 28bd
00000140: 6ef1 b9bf af2e acbe 5fe4 d33e 384c ec3f
00000150: 9713 0538 9c8f f2be 2f54 da39 0f4c 85be
00000160: 9fc0 bb3f f14c a43f 2363 c83d 26c4 903f
00000170: cb4d a63e 2b15 51be 2198 75bf 0f53 543e
00000180: 491a b23e f22e e9be 70c6 c3bd 13d7 60be
00000190: 1334 1f3f d51c 8bbd f507 d13e b204 683b
000001a0: 3c42 663e 2072 1f3d 0eec 7bbd ea12 d7bd
000001b0: 362d 7b3f 54e9 8cbc 5b40 e2bd 2aa0 12be
000001c0: a2fb 0e3f 26b9 dbbe b64a 063f 4fb4 36bf
000001d0: 509e eaba 0812 883e ecd0 d935 c554 4c3f
000001e0: 820c 763f 8fba babe 04a0 efbf 926a edbf
000001f0: b0da e3bf 7581 1e3f 6746 85bd 546b b6bf
00000200: e489 84bd 372e 5cbe cdb3 30be 2cbd 4ebe
00000210: 7fa1 9e3e 7d94 f5bd 711c c73d 74bf 3ebe
00000220: 9e32 65bd 429c 833f 32e1 3bbe 6197 febd
00000230: fa0c a53d 0e40 57bf a469 a3be fe60 38bf
00000240: a0b5 923d a35a 70be d4bf 45be 888b 053f
00000250: 3ec2 1db9 3c34 0c3f ded2 38b9 e197 063f
00000260: f3ce a1bf e59f be3f d557 85bf 88f8 bc3f
00000270: 6d91 babe f824 1c3f 6e82 9bbf aadc bb3e
00000280: 9372 02bd 3765 713f 6543 40bf c2df 0f3f
00000290: b87e cbbe 1c60 553d 3f15 43bc 7e80 fbbe
000002a0: f450 333f 6a3c cabd 162a bd3e b9cf 7c3d
000002b0: b599 243f 17d8 ecbf ba98 b13e 245d a4bf
000002c0: 1c54 ab3f e084 43bf efd5 ea3f d481 05c0
000002d0: 46cf bfb7 c0da 3b3d d823 c5b6 f1db d6be
000002e0: 1233 113e 9cfa 07c0 6a4a 183f ab4b 2bc0
000002f0: 86a2 0fc0 ed3a c13f fcf4 b33f c875 2fbf
00000300: dfdd 76be 1db8 3d3f 2d89 96bd 0066 463f
00000310: af33 eebe e8b7 b53e 7108 efbd 1bf5 3a3f
00000320: f508 8f3e c767 053e 19bc fa3e 6493 983e
00000330: 6c85 77be d7c4 58bf 844a 493c 1b78 1ebe
00000340: ef9b c5bf 9e60 87bf ed3a 1f3f ff1f 483f
00000350: 478e 9c3a 6c35 86bf b270 1030 18fd 1bbf
00000360: 6b50 0e3e 32b2 96bf 3c87 d63f 6f3d 523f
00000370: 609a 923f 6bc9 c8be 5b2d f03e 9220 d83f
00000380: aa11 bbbe fe10 173f 8c6b 75bf 9d3e 273e
00000390: a824 a53e 4b0f 26bc cc25 90be 1e83 173e
000003a0: ebdb fa3c 6517 29bf eb93 dc3d 4d76 19be
000003b0: e610 a9be 25be 643d 08a0 d13e e1a2 9fbd
000003c0: f450 c9be 7b3d 9c3e 23d7 1a3f 621d e0be
000003d0: 004d 9eb7 9cd5 43bf 7ea1 bcb9 b569 39bf
000003e0: b955 843f c760 833e 6f27 883f 0880 7b3f
000003f0: ad45 2d3f fe00 a1bd a0c1 453f 6d19 08c0

module_8.bias f4 [12]
-0.593233 0.014368461 -0.029606443 0.57963765 0.2981814 -0.14126375 -0.14446786 -0.37514785
-0.49608544 0.43177873 -0.2122213 0.3971816
00000000: 1ede 17bf b269 6b3c 3689 f2bc 2263 143f
00000010: 3cab 983e 72a7 10be 62ef 13be 6113 c0be
00000020: e9fe fdbe 1a12 dd3e 8a50 59be 635b cb3e
