models/32_model_64_window_100_epochs_last.pt (torch, 10671 bytes, 6 tensors)

module_1.bias f4 [32]
-0.87186086 -0.9720557 -0.6315912 -1.3687043 -1.1569792 -0.8924772 -0.8129098 -0.6575704
1.3218182 1.5134587 -0.22702195 -0.46478724 -1.2201774 -1.2378267 -0.87309873 -1.8665061
0.57109827 -0.8933053 1.6425459 -1.118961 -1.7992462 -0.29008496 -1.1389163 -1.2166932
0.37069875 -0.7163282 -0.21187559 0.104983166 -0.26916683 -1.1963333 -4.564572e-12 1.2385906
00000000: 4632 5fbf a4d8 78bf f6af 21bf b431 afbf
00000010: e517 94bf 6379 64bf db1a 50bf 8956 28bf
00000020: 5731 a93f 04b9 c13f 7178 68be 98f8 edbe
00000030: c62e 9cbf 1b71 9ebf 6683 5fbf ace9 eebf
00000040: 7f33 123f a8af 64bf f23e d23f 1d3a 8fbf
00000050: b34d e6bf 0486 94be 02c8 91bf 9abc 9bbf
00000060: 3acc bd3e 4961 37bf eaf5 58be 6a01 d73d
00000070: 3cd0 89be 7321 99bf 029a a0ac 238a 9e3f

module_1.lin.weight f4 [32, 3]
3.3828828 -1.3539463 -0.65799767 -1.5529459 0.532767 -0.44784242 -0.79551584 -1.6337216
-0.7171668 -0.15631254 -1.400808 -0.80950516 -0.01047924 -2.624245 1.1035515 0.36252457
1.668644 -1.4545195 -3.1762278 -0.073539734 -0.56927973 -2.9259582 -1.0365254 -0.88316166
-0.1270664 -1.1719273 0.23121905 -0.38818523 -5.194354 -0.029016469 0.6216824 -2.3381417
1.2768852 -0.05310977 1.229904 -0.08772845 -1.4502939 0.13503823 -1.5881429 -0.12962088
-1.1742339 -0.5905737 1.3504019 -0.23485146 3.2641232 -1.5562476 2.526993 -0.13130969
-0.43715495 1.6338856 1.8090396 1.9558496 2.571883 0.20577045 0.36160657 0.7554765
0.79639083 -0.3234126 1.2516701 -0.48065054 2.5387418 0.4793029 0.34707767 0.1005234
2.6510012 -0.0027024893 0.028465373 -2.6567748 1.182463 0.35778767 -1.1452683 1.9294442
0.007472965 -0.3505538 0.07053597 -0.1775554 0.8250745 -0.2647674 -0.026325386 -0.016024522
-0.07624012 -0.38833153 1.5313945 -0.8602748 0.0995025 2.497584 -0.008109432 -0.3443779
3.0030024 0.5894105 1.8825458e-17 1.110712e-31 3.3575257e-15 -0.8248378 1.4104849 -1.1166136
00000000: 2781 5840 1d4e adbf 8972 28bf eec6 c6bf
00000010: 6b63 083f 9a4b e5be eda6 4bbf ca1d d1bf
00000020: 3e98 37bf 6510 20be ad4d b3bf bb3b 4fbf
00000030: 1eb1 2bbc a1f3 27c0 2d41 8d3f d29c b93e
00000040: 2096 d53f b22d babf 5147 4bc0 009c 96bd
00000050: 51bc 11bf e642 3bc0 ddac 84bf e216 62bf
00000060: b21d 02be b701 96bf b0c4 6c3e 37c0 c6be
00000070: 2638 a6c0 f2b3 edbc 9426 1f3f 1da4 15c0
00000080: f970 a33f a189 59bd 7f6d 9d3f f9aa b3bd
00000090: 3ba3 b9bf 7647 0a3e 4448 cbbf 56bb 04be
000000a0: 4c4d 96bf d72f 17bf f8d9 ac3f e77c 70be
000000b0: 65e7 5040 1f33 c7bf 41ba 2140 0c76 06be
000000c0: c6d2 dfbe 2a23 d13f 9c8e e73f 4859 fa3f
000000d0: bb99 2440 7db5 523e 7f24 b93e e866 413f
000000e0: 45e0 4b3f 5696 a5be ba36 a03f d417 f6be
000000f0: bf7a 2240 3167 f53e 2ab4 b13e 36df cd3d
00000100: 01aa 2940 3f1c 31bb 3730 e93c 9908 2ac0
00000110: f35a 973f f22f b73e 2798 92bf 07f8 f63f
00000120: c6df f43b ca7b b3be 2a75 903d 15d1 35be
00000130: 1538 533f 988f 87be 56a8 d7bc dc45 83bc
00000140: c823 9cbd 64d3 c6be bc04 c43f f83a 5cbf
00000150: f7c7 cb3d 6bd8 1f40 6cdd 04bc 4d52 b0be
00000160: 3131 4040 9be3 163f 5ba2 ad23 bd2d 100c
00000170: 6bef 7127 9228 53bf c58a b43f 32ed 8ebf

module_3.bias f4 [32]
0.11529739 -0.3947722 0.70931077 0.4847932 -0.0028164117 0.17725676 -0.11432622 -4.0512095e-08
-0.6015344 0.067183994 -0.059703104 -6.908598e-07 -0.1079181 -1.0787666e-18 0.60581934 0.8221169
-1.574897 1.1413941 -1.0331877e-05 -0.5202522 0.2257951 0.55599755 -0.27665967 0.1954971
-2.2133483e-13 -0.08212099 1.2295011 -0.21092649 -6.470798e-05 -0.11116247 0.2659897 -4.3274937e-07
00000000: 0a21 ec3d 951f cabe 6495 353f d036 f83e
00000010: 8c93 38bb cc82 353e dd23 eabd 85ff 2db3
00000020: 29fe 19bf c397 893d 3e8b 74bd 8673 39b5
00000030: 2a04 ddbd a632 9fa1 fa16 1b3f 4176 523f
00000040: 3a96 c9bf 3419 923f 1357 2db7 402f 05bf
00000050: d536 673e db55 0e3f 56a6 8dbe 6430 483e
00000060: 6c33 79aa 0d2f a8bd 4b60 9d3f 1dfd 57be
00000070: d5b3 87b8 26a9 e3bd cd2f 883e 9f54 e8b4

module_3.lin.weight f4 [32, 32]
1.0660781 0.6102893 -0.5485878 -0.27194375 -0.17399989 0.3104513 1.2145768 0.99274266
0.20590298 -1.8789204 -0.43737596 -0.07940433 0.40386382 -0.22449675 -2.1022646 -0.013675708
-0.46417013 1.0020517 -0.18996818 -0.012858961 0.5912091 -0.09338713 -0.18195619 -0.23272191
0.11630108 -0.046518005 -0.032762308 -0.004495171 -0.06595137 -0.4624437 -1.4344e-41 -0.016856726
-0.6201248 -0.123597875 -0.2003266 -0.051829245 -0.0017060624 0.6608928 -0.39882296 -0.33287716
-0.873201 -0.2601223 0.12198289 0.21786022 0.19544299 -0.007915602 0.1800771 0.7381378
0.3336039 0.2982089 -0.683926 0.0682303 -0.3307422 0.37721816 0.001278222 0.16391611
-0.23177381 0.0682328 0.012981666 0.40491667 0.41933203 0.45428362 9.033e-42 0.01965246
0.17222151 0.35091832 -0.13626894 -0.21783058 0.03799407 0.8526828 0.3453891 -0.06235833
0.39316785 -3.2635329 -0.17125174 -0.41003376 1.0903275 -0.17605534 0.8087153 0.4859542
-0.455677 -1.2360559 0.43673468 -0.14646442 0.1280179 -0.2229027 0.044482276 -0.0029178464
0.1988387 -0.1260217 0.004189607 0.43231174 -0.21823028 -0.44875905 8.167e-42 0.9076755
0.3542202 0.2614609 -0.090739965 -0.008387979 -0.010000749 -0.6020834 0.46694386 0.41267878
-0.27346003 -3.1472871 -0.43716827 -0.42814124 0.44125974 -0.0011568486 0.6982091 -0.4095624
0.8002723 -0.41752216 0.6766698 -1.0013328 0.611216 -0.09810616 -0.014416337 -0.027631387
-0.14513195 -0.66890377 0.011704881 -0.14600977 -0.11467101 -0.5573776 -7.58e-42 0.2970152
1.3133622 -0.077579714 -0.039729957 -0.22055556 -0.26171136 -0.41354552 1.5265492 1.3218837
0.15812004 -0.18311769 -0.4952962 -0.08148512 -0.66797787 -0.18458322 0.24885939 -1.7268925
-0.6894554 -0.5196182 -0.07883495 0.07076018 0.61785704 -0.44728854 -0.22899109 -0.12540825
0.072574474 0.034421343 -0.010102098 -0.4586746 -0.42007044 -1.0483495 3.5456813e-34 -0.46972513
-0.2401865 -0.47980464 0.11520176 0.8069109 -1.2977504 0.42627248 -0.017176792 0.73660684
0.7462887 0.2239183 -1.5224591 -0.5163632 0.81459486 0.7498481 -0.26617414 -0.85160875
0.79998696 -1.7336557 1.5778258 0.008771102 -0.14058368 -1.5250839 -1.2816175 -0.65277225
0.3035197 -0.012835581 0.095072076 -0.8076022 -1.4443511 -0.5278025 -4.7910412e-37 0.40057534
-0.8765047 0.44361076 -0.78656024 -1.3799808 0.5461176 -0.05779407 0.44360667 0.64557475
0.08119759 -0.35767657 0.8834622 -0.11121014 -0.3356503 -1.1192998 1.4854625 -0.4056125
-1.2374506 -0.43582645 0.6186806 0.00048888347 0.58460563 -0.37953472 0.7445847 1.2771108
0.089191765 0.00027901566 1.0556166e-21 -0.1986199 -0.35718375 -0.39224806 3.1868526e-28 -0.90723825
-3.666941e-08 -7.965325e-10 5.3046733e-08 -3.352235e-08 1.0565789e-07 -1.6015925e-08 -2.5383066e-08 -3.8202874e-08
9.9978825e-09 -2.094304e-07 9.6496635e-08 -1.8531346e-09 -4.358834e-09 -2.2456382e-08 -2.6008854e-08 1.1764956e-10
-2.9937915e-08 -3.144321e-08 -7.628566e-08 3.350147e-11 3.6082765e-10 -4.886267e-08 1.0923385e-07 4.3062215e-08
3.6877225e-08 2.2758215e-11 4.5018e-41 -3.4303522e-08 -4.2865036e-08 -7.128135e-09 -9.663e-42 -1.1094891e-07
00000000: 3f75 883f eb3b 1c3f 4070 0cbf 363c 8bbe
00000010: 072d 32be 79f3 9e3e 4177 9b3f 6224 7e3f
00000020: 3bd8 523e 7780 f0bf beef dfbe bd9e a2bd
00000030: 3dc7 ce3e 7ae2 65be 818b 06c0 1410 60bc
00000040: b5a7 edbe 3b43 803f 0587 42be 64ae 52bc
00000050: 7b59 173f c041 bfbd b952 3abe a74e 6ebe
00000060: 432f ee3d aa89 3ebd c531 06bd 3a4c 93bb
00000070: 8311 87bd 6cc5 ecbe fc27 0080 1e17 8abc
00000080: 80c0 1ebf e220 fdbd 6b22 4dbe e74a 54bd
00000090: f49d dfba 4530 293f 8632 ccbe e06e aabe
000000a0: 1a8a 5fbf c02e 85be 2ad2 f93d c016 5f3e
000000b0: 3522 483e 71b0 01bc 2266 383e 99f6 3c3f
000000c0: 21ce aa3e d6ae 983e c615 2fbf 54bc 8b3d
000000d0: 0b57 a9be bd22 c13e 038a a73a a0d9 273e
000000e0: 1d56 6dbe a3bd 8b3d 0eb1 543c 3d51 cf3e
000000f0: b0b2 d63e dd97 e83e 2e19 0000 32fe a03c
00000100: d65a 303e 91ab b33e 168a 0bbe fb0e 5fbe
00000110: ac9f 1b3d 6c49 5a3f d7d6 b03e 736b 7fbd
00000120: 4c4d c93e b9dd 50c0 9e5c 2fbe f2ef d1be
00000130: da8f 8b3f da47 34be f707 4f3f fdce f83e
00000140: 7f4e e9be 1437 9ebf b09b df3e c5fa 15be
00000150: 2017 033e 9b40 64be 0c33 363d 5739 3fbb
00000160: 5f9c 4b3e d50b 01be f948 893b f757 dd3e
00000170: c277 5fbe bfc3 e5be c416 0000 6c5d 683f
00000180: 5a5c b53e 34de 853e e0d5 b9bd bc6d 09bc
00000190: 2eda 23bc 2322 1abf 4413 ef3e a24a d33e
000001a0: f402 8cbe 276d 49c0 85d4 dfbe 5435 dbbe
000001b0: ccec e13e 66a1 97ba d5bd 323f 2ab2 d1be
000001c0: a5de 4c3f 77c5 d5be 3b3a 2d3f ac2b 80bf
000001d0: a778 1c3f e2eb c8bd 8032 6cbc 385b e2bc
000001e0: 789d 14be 473d 2bbf d4c5 3f3c 9683 15be
000001f0: a2d8 eabd 4cb0 0ebf 2115 0080 6012 983e
00000200: 411c a83f 1de2 9ebd e1bb 22bd 51d9 61be
00000210: 08ff 85be 3dbc d3be f765 c33f 7c33 a93f
00000220: 38ea 213e 3483 3bbe 7797 fdbe ace1 a6bd
00000230: 9900 2bbf 6203 3dbe ffd4 7e3e d00a ddbf
00000240: 2680 30bf b305 05bf 3874 a1bd b7ea 903d
00000250: e12b 1e3f 0103 e5be a47c 6abe 056b 00be
00000260: eda1 943d 65fd 0c3d 4583 25bc 66d7 eabe
00000270: 7913 d7be 5130 86bf a4a6 eb07 d07f f0be
00000280: 73f3 75be f4a8 f5be e6ee eb3d b691 4e3f
00000290: af1c a6bf 6340 da3e 58b6 8cbc 4492 3c3f
000002a0: c70c 3f3f d74a 653e f1df c2bf 6130 04bf
000002b0: 4a89 503f 0cf6 3f3f fa47 88be 0803 5abf
000002c0: f2cb 4c3f 6ee8 ddbf 32f6 c93f abb4 0f3c
000002d0: 2bf5 0fbe f335 c3bf 0b0c a4bf 151c 27bf
000002e0: ef66 9b3e 544c 52bc 26b5 c23d 05bf 4ebf
000002f0: 7fe0 b8bf 111e 07bf db07 2383 3618 cd3e
00000300: 9d62 60bf f320 e33e 035c 49bf 36a3 b0bf
00000310: 5dce 0b3f 7ab9 6cbd 6a20 e33e 6344 253f
00000320: ec4a a63d 6221 b7be 942a 623f 24c2 e3bd
00000330: 5bda abbe 3745 8fbf a323 be3f 71ac cfbe
00000340: c864 9ebf a524 dfbe da61 1e3f 6a28 003a
00000350: b7a8 153f 6052 c2be 1a9d 3e3f 5e78 a33f
00000360: 2caa b63d d948 9239 3085 9f1c 0463 4bbe
00000370: cae0 b6be bdd4 c8be a4fd c911 c440 68bf
00000380: 717e 1db3 fef2 5ab0 80d5 6333 37fa 0fb3
00000390: 0ae6 e233 6493 89b2 f409 dab2 8114 24b3
000003a0: 27c3 2b32 cadf 60b4 9639 cf33 61b1 feb0
000003b0: b6c4 95b1 1be6 c0b2 136a dfb2 685b 012f
000003c0: 1695 00b3 2d0c 07b3 7cd2 a3b3 4d57 132e
000003d0: fa5d c62f 13dd 51b3 f293 ea33 68f3 3833
000003e0: f062 1e33 f22e c82d 7e7d 0000 1f55 13b3
000003f0: 9b1a 38b3 bdeb f4b1 f01a 0080 cf42 eeb3

module_8.weight f4 [12, 64]
-0.55721426 0.05659483 0.07010921 -0.1627282 0.5506693 -0.27057806 -0.32389113 -1.3500869
0.23855346 0.8865407 0.6873092 -0.034012787 -0.21552908 -0.10200818 1.1730027 0.028715095
-0.46143267 0.16784409 -0.7255942 -0.06823127 -0.3296248 -0.10369394 0.53334224 0.10732349
0.21086532 -0.04700166 -0.0053649666 -0.40734997 -0.10762457 0.19394378 -4.76e-42 -0.9608238
0.6242905 0.14953318 1.2611175 0.5498175 -0.82415324 -1.6103241 -0.8588546 -3.3553473e-08
1.0186607 1.2184415 -0.21633855 1.3730823e-05 -0.68439287 0.0002643015 0.034354713 0.22302328
2.5427167 -1.1716952 0.003493088 -2.3373444 -0.58789533 -0.2861563 0.07225772 -0.5194771
-0.002281961 -0.25672072 0.19518352 0.026512818 0.0001377796 -0.58378786 0.38490263 -0.0073633697
-0.45412707 -0.22847885 -0.3324457 -0.17335832 -0.50189376 0.02480117 -0.61649173 -0.31120455
0.4160586 0.5702838 -0.18880554 -0.24015261 0.30370903 -0.1945141 -0.16540524 -0.42109805
-0.6244955 -0.51531833 -0.017995603 -0.104056776 -0.37572816 -0.8341718 -0.47864223 -0.23336068
0.18289606 -0.090265915 0.0058370633 -0.5504902 -0.78880054 -0.5237268 -4.221e-42 -0.93090886
0.14710177 -0.49726933 -1.3479767 -1.7665668 0.7551298 1.0726798 0.55872464 -1.0597447e-10
-1.3545336 -0.38261762 0.5115062 5.8356264e-11 1.0657477 -6.6660875e-13 -2.7404637 0.3200454
-0.61923885 1.4459602 -5.7318235e-09 0.94903016 0.84466183 0.45961487 0.38667545 -0.6294845
-7.325228e-33 -0.0011779981 -0.17568135 0.2114017 2.1244353e-09 1.0340627 0.068423234 0.0003265359
-0.39533147 0.2778989 0.1585783 -0.040318638 0.058109563 -0.11459215 1.2091684 0.74437505
0.115275115 0.22771487 -0.20910181 0.0045065545 -0.26461202 -0.016868152 0.046960555 -0.29455024
0.12482284 0.8140296 0.3241561 -0.059277005 -0.69451183 0.16052175 0.037287854 0.1548957
0.08709639 -0.07197494 -0.007066187 0.05586051 0.15446538 -0.31443858 -1.1516559e-32 0.58010554
0.05091311 -0.19769329 -1.2866929 -1.2264706 0.65737957 0.56226957 0.26527545 -5.6761024e-08
1.2411714 1.2022047 1.279218 -1.0231208e-05 0.39248502 -0.0005493501 -0.6913564 -0.49262804
-0.6740755 -0.25069535 -0.0037994809 -1.6877092 0.12410413 0.63826877 -0.118330546 -0.08493675
-4.3265813e-05 0.37690425 -0.01812088 0.2859499 -2.6656006e-05 -0.21260576 0.52736056 -0.0023341111
0.59882826 0.098857455 0.19901325 0.120069176 -0.068914 -0.37963575 0.29398364 -0.21323323
0.22612153 0.20332667 0.12824737 0.11746191 -0.025026971 0.10255508 -1.1107727 -0.31999606
-0.24113736 0.057574943 0.59744203 -0.01065789 0.49312252 0.35797504 -0.07154314 -0.16180757
0.15710428 -0.027643029 -0.0025962766 0.2450107 0.38787824 -0.27974957 2.39373e-39 0.44471574
0.13321956 -0.741133 0.35286003 0.843318 0.036571376 -0.78176993 0.63992655 -3.8144483e-09
-1.240865 -0.85669714 -0.45850936 2.7211142e-06 0.6696724 -0.000859856 0.90250844 -1.9305948
-0.88220793 -1.6322173 -0.008424579 0.4309906 -0.12784648 0.869253 0.24659707 0.8876173
0.00041420662 -0.040680688 -1.5226128 -0.22676241 4.0879077e-05 0.7384015 -1.0203999 0.006119982
00000000: 98a5 0ebf fbcf 673d 6b95 8f3d 39a2 26be
00000010: aaf8 0c3f 3589 8abe 0fd5 a5be a6cf acbf
00000020: 5c47 743e 55f4 623f 7ff3 2f3f fe50 0bbd
00000030: a8b3 5cbe aae9 d0bd f424 963f eb3b eb3c
00000040: e740 ecbe 52df 2b3e 8bc0 39bf d6bc 8bbd
00000050: 95c4 a8be 7d5d d4bd 1e89 083f 6bcc db3d
00000060: 14ed 573e d084 40bd 9acc afbb 2d90 d0be
00000070: 456a dcbd 3399 463e 450d 0080 8cf8 75bf
00000080: 81d1 1f3f 3a1f 193e 4c6c a13f d7c0 0c3f
00000090: b5fb 52bf 1a1f cebf e5dd 5bbf 6f1c 10b3
000000a0: 7963 823f e4f5 9b3f da87 5dbe 705d 6637
000000b0: 5f34 2fbf f291 8a39 87b7 0c3d 3760 643e
000000c0: dfbb 2240 1cfa 95bf 4bec 643b 0d97 15c0
000000d0: 4f80 16bf 1483 92be dbfb 933d 74fc 04bf
000000e0: f48c 15bb e670 83be 30de 473e 6931 d93c
000000f0: ee78 1039 1f73 15bf f511 c53e 6c48 f1bb
00000100: 5883 e8be 5cf6 69be 5336 aabe d884 31be
00000110: 1c7c 00bf d32b cb3c 67d2 1dbf 3456 9fbe
00000120: a205 d53e 1efe 113f 3d56 41be 91ea 75be
00000130: c07f 9b3e b42e 47be fe5f 29be 2a9a d7be
00000140: f0de 1fbf e7eb 03bf 846b 93bc b81b d5bd
00000150: 715f c0be 488c 55bf 9810 f5be 1af6 6ebe
00000160: 1b49 3b3e 56dd b8bd d644 bf3b edec 0cbf
00000170: d5ee 49bf f612 06bf c40b 0080 0b50 6ebf
00000180: d9a1 163e 169a febe 808a acbf dc1e e2bf
00000190: 3050 413f 924d 893f 9408 0f3f 530a e9ae
000001a0: 5b61 adbf 75e6 c3be 12f2 023f a853 802e
000001b0: 6c6a 883f 39a2 3bab c263 2fc0 fedc a33e
000001c0: 7086 1ebf 3915 b93f a7f1 c4b1 a4f3 723f
000001d0: c23b 583f a452 eb3e 53fa c53e e525 21bf
000001e0: 9823 188a 0f67 9aba d0e5 33be b079 583e
000001f0: 76fd 1131 2b5c 843f 7b21 8c3d e832 ab39
00000200: e368 cabe c448 8e3e 5a62 223e 2825 25bd
00000210: 4b04 6e3d 4aaf eabd 08c6 9a3f 5d8f 3e3f
00000220: 5c15 ec3d 162e 693e c91e 56be b8ab 933b
00000230: 3a7b 87be 142f 8abc b659 403d 4acf 96be
00000240: 1ea3 ff3d 3e64 503f caf7 a53e 72cc 72bd
00000250: 87cb 31bf d05f 243e 26bb 183d fa9c 1e3e
00000260: 985f b23d 9967 93bd 798b e7bb fdcd 643d
00000270: 2c2c 1e3e 18fe a0be 8830 6f8a cc81 143f
00000280: 448a 503d 1c70 4abe 5ab2 a4bf fdfc 9cbf
00000290: 074a 283f e6f0 0f3f 2fd2 873e 68c9 73b3
000002a0: b4de 9e3f d8e1 993f 6abd a33f b4a6 2bb7
000002b0: ccf3 c83e 4302 10ba bcfc 30bf be39 fcbe
000002c0: 3690 2cbf 245b 80be b600 79bb db06 d8bf
000002d0: 4e2a fe3d 9565 233f 4957 f2bd 52f3 adbd
000002e0: 5078 35b8 98f9 c03e 3d72 94bc 0668 923e
000002f0: 569b dfb7 53b5 59be 1a01 073f e3f7 18bb
00000300: cf4c 193f c775 ca3d 21ca 4b3e d4e6 f53d
00000310: c922 8dbd 9e5f c2be 0685 963e d059 5abe
00000320: 678c 673e de34 503e 4753 033e df8f f03d
00000330: 5d05 cdbc 6608 d23d cd2d 8ebf 86d6 a3be
00000340: b6ec 76be b4d3 6b3d f6f1 183f 6e9e 2ebc
00000350: 8e7a fc3e 8148 b73e 3685 92bd e2b0 25be
00000360: f2df 203e a273 e2bc 4b26 2abb 16e4 7a3e
00000370: fa97 c63e 563b 8fbe bf10 1a00 c8b1 e33e
00000380: b56a 083e e4ba 3dbf 12aa b43e b0e3 573f
00000390: decb 153d 1322 48bf 3ad2 233f 3e10 83b1
000003a0: aad4 9ebf 8150 5bbf bdc1 eabe 639c 3636
000003b0: a76f 2b3f f667 61ba cb0a 673f bb1d f7bf
000003c0: 61d8 61bf 7fec d0bf 3f07 0abc cdaa dc3e
000003d0: 30ea 02be 5d87 5e3f f183 7c3e e33a 633f
000003e0: df29 d939 cba0 26bd fae4 c2bf 6834 68be
000003f0: 9375 2b38 e107 3d3f 779c 82bf 218a c83b

module_8.bias f4 [12]
-0.39871013 0.058071863 0.15720858 0.35530615 0.28742376 -0.16695662 0.40459895 -0.29979795
-0.43324187 0.29241875 -0.22320329 -0.039428804
00000000: bc23 ccbe c3dc 6d3d 49fb 203e b0ea b53e
00000010: 3529 933e adf6 2abe 9827 cf3e 1e7f 99be
00000020: e1d1 ddbe e9b7 953e 678f 64be 1980 21bd
