models/32_model_64_window_100_epochs.pt (torch, 10631 bytes, 6 tensors)

module_1.bias f4 [32]
-0.87322634 -1.0300921 -0.5887834 -1.2488188 -1.1348746 -0.8325541 -0.83604544 -0.6476067
1.3148547 1.3981442 -0.20322861 -0.34731495 -1.1578312 -1.129206 -0.81925446 -1.8025265
0.5503534 -0.87119114 1.606708 -0.9796566 -1.7083248 -0.24896261 -1.1016185 -1.1301546
0.58783746 -0.66293633 -0.6533047 0.177043 -0.23400468 -1.1774039 -6.4737474e-06 1.2056792
00000000: c38b 5fbf 0fda 83bf 82ba 16bf 4bd9 9fbf
00000010: 9243 91bf 4422 55bf 1307 56bf 8dc9 25bf
00000020: 294d a83f 64f6 b23f 291b 50be 44d3 b1be
00000030: d033 94bf d289 90bf a9ba 51bf 30b9 e6bf
00000040: f6e3 0c3f 6206 5fbf 9ca8 cd3f c6ca 7abf
00000050: 63aa dabf 0ef0 7ebe d601 8dbf e8a8 90bf
00000060: 847c 163f 32b6 29bf fa3e 27bf c34a 353e
00000070: ec9e 6fbe 2cb5 96bf 1139 d9b6 b253 9a3f

module_1.lin.weight f4 [32, 3]
3.2632866 -1.3358339 -0.67417824 -1.6572956 0.610909 -0.37179977 -0.8196843 -1.7019314
-0.7297675 -0.23402433 -1.2454444 -0.729673 0.018670525 -2.577075 1.047158 0.373572
1.6076015 -1.397408 -3.1389236 -0.13211271 -0.62409633 -2.9142704 -1.0193477 -0.9024628
-0.16212857 -1.2006156 0.25400737 -0.38252896 -5.0514016 -0.09096172 0.62776804 -2.344391
1.2402124 0.064266965 1.532731 0.008424461 -1.4774948 0.1603328 -1.4761075 -0.1883849
-1.0657264 -0.56403124 1.2380245 -0.2693347 3.2371812 -1.4867067 2.467409 -0.1958071
-0.37268475 1.6564096 1.7416474 1.8626537 2.4617977 0.12720887 0.34410733 0.7313837
0.8408709 -0.20643248 1.1801862 -0.4394612 2.527976 0.47168502 0.3155703 0.12554914
2.6042206 0.020927776 0.05721519 -2.598431 1.1395539 0.30426392 -1.3293163 1.9122794
-0.06887954 -0.5995291 0.1034174 -0.20093663 0.92854196 -0.1844263 -0.10176604 -0.033335358
-0.18211937 -0.40094694 1.515799 -0.9283026 0.12824672 2.4743218 0.022750981 -0.44294024
2.9197686 0.56715703 4.981932e-08 1.7328515e-12 1.518639e-07 -0.7921081 1.3516098 -1.0878788
00000000: b0d9 5040 9bfc aabf f296 2cbf 4322 d4bf
00000010: 8864 1c3f 8a5c bebe d5d6 51bf e3d8 d9bf
00000020: 0bd2 3abf 13a4 6fbe b96a 9fbf dacb 3abf
00000030: eef2 983c ccee 24c0 4609 863f d444 bf3e
00000040: e3c5 cd3f 44de b2bf 20e4 48c0 8e48 07be
00000050: c7c4 1fbf 6883 3ac0 fc79 82bf cd07 67bf
00000060: 0805 26be c6ad 99bf 410d 823e d6da c3be
00000070: 15a5 a1c0 234a babd 68b5 203f 810a 16c0
00000080: 48bf 9e3f 669e 833d 8830 c43f c006 0a3c
00000090: 8d1e bdbf 482e 243e 17f1 bcbf f9e7 40be
000000a0: b969 88bf 5a64 10bf 9677 9e3f 3de6 89be
000000b0: fa2d 4f40 684c bebf 07ea 1d40 a881 48be
000000c0: 89d0 bebe 3b05 d43f 4dee de3f 706b ee3f
000000d0: 188e 1d40 0b43 023e d62e b03e f63b 3b3f
000000e0: 5143 573f 0963 53be 5710 973f 0f01 e1be
000000f0: 5cca 2140 b380 f13e 6e92 a13e f48f 003e
00000100: 8dab 2640 ba70 ab3c 7a5a 6a3d b24c 26c0
00000110: e7dc 913f 7bc8 9b3e 0927 aabf 92c5 f43f
00000120: b710 8dbd bd7a 19bf 80cc d33d 55c2 4dbe
00000130: edb4 6d3f 3fda 3cbe b76a d0bd a88a 08bd
00000140: 807d 3abe eb48 cdbe b405 c23f 3da5 6dbf
00000150: 1c53 033e 4a5b 1e40 4460 ba3c 10c9 e2be
00000160: 7ddd 3a40 3431 113f ecf8 5533 8ee0 f32b
00000170: 0810 2334 99c7 4abf 8d01 ad3f 9d3f 8bbf

module_3.bias f4 [32]
0.031483725 -0.43054312 0.6934564 0.3567366 -0.0009478349 0.17666063 -0.11532768 -4.391993e-06
-0.63452476 0.0724316 -0.061282117 -2.470592e-37 -0.105767585 -6.7260517e-06 0.6178457 0.7769864
-1.6480733 1.1050019 -0.19850555 -0.48551446 0.25530767 0.5346691 -0.31534597 0.2835601
-0.0019554016 -8.51337e-10 1.1681397 -1.9072358e-21 -0.06296497 -0.11891279 0.2862998 -0.044010308
00000000: 14f5 003d 2670 dcbe 5c86 313f 2ea6 b63e
00000010: 2078 78ba 86e6 343e eb30 ecbd ef5e 93b6
00000020: 3770 22bf 0557 943d f502 7bbd c923 a882
00000030: ad9c d8bd 58b0 e1b6 232b 1e3f 95e8 463f
00000040: 11f4 d2bf b470 8d3f 0a45 4bbe 5a95 f8be
00000050: b0b7 823e 13e0 083f 0775 a1be ca2e 913e
00000060: 3226 00bb 8403 6ab0 9a85 953f 4e1b 109d
00000070: c7f3 80bd 8d88 f3bd e395 923e 2744 34bd

module_3.lin.weight f4 [32, 32]
1.0815232 0.6678651 -0.6685402 -0.3583301 -0.23333772 0.30692056 1.2500868 1.0084547
0.21425629 -1.8705659 -0.4018932 -0.114292644 0.41599068 -0.27346835 -2.2063694 -0.03982375
-0.41154855 0.9671932 -0.2741376 -0.090237804 0.5885166 -0.11550168 -0.25645763 -0.35151857
0.16438226 -0.14692461 -0.15811858 -0.023498762 -0.08557106 -0.4680095 -1.2756e-41 -0.042389806
-0.6821065 -0.010292701 -0.25852582 -0.08231287 -0.0018215763 0.6603723 -0.35860044 -0.29402214
-0.9666802 -0.40180433 0.07575869 0.2873491 0.21106069 0.006764648 0.13112405 0.8110296
0.29606682 0.345006 -0.6826833 0.097983874 -0.43638468 0.40175635 0.0031283689 0.17794657
-0.39877543 0.21514207 -0.005396851 0.42705807 0.45539337 0.54596436 -1.0344e-41 0.010572783
0.17463078 0.36029512 -0.27401277 -0.23928939 -0.07338019 0.8427567 0.3163398 -0.07916327
0.38889286 -3.2282221 -0.14458625 -0.3888487 1.0898415 -0.25999987 0.8588496 0.41507354
-0.5028753 -1.1834086 0.37633517 -0.1882998 0.12484827 -0.17042997 -0.063071005 -0.04189629
0.24908957 -0.22961205 -0.13192727 0.4943131 -0.16572548 -0.40751046 -8.98e-42 0.90191644
0.3762443 0.3043506 -0.10904042 -0.0432737 -0.093409464 -0.6249578 0.50552 0.39045173
-0.29014093 -2.9508986 -0.3247573 -0.3450242 0.48082364 -0.0037328901 0.7699623 -0.361435
0.74164605 -0.42526186 0.59955925 -0.7601904 0.78017247 -0.05270939 -0.09859925 -0.12637419
-0.22623329 -0.5573517 -0.0039565763 -0.15916297 -0.07258715 -0.48424742 2.539e-42 0.24868497
1.350234 0.00616586 -0.15087852 -0.115079 -0.18582423 -0.22463897 1.5077932 1.3324778
0.1521654 -0.23656283 -0.411318 -0.11974822 -0.582981 -0.16587728 0.23587471 -1.6367497
-0.7029901 -0.49992266 -0.013472991 0.25728548 0.64360124 -0.51961875 -0.14045452 -0.041103695
0.08779944 0.1117578 0.10488539 -0.40825245 -0.49584603 -1.0419928 3.2595942e-12 -0.46447653
-0.1418841 -0.4655052 0.08361247 0.6730386 -1.3011227 0.46482894 0.017323384 0.68661004
0.71473384 0.16514738 -1.4940934 -0.759165 0.8295531 0.6912319 -0.2238336 -0.8023719
0.7499688 -1.7719043 1.6009706 0.09506288 -0.35242566 -1.474125 -1.2553085 -0.6222902
0.37812877 -0.01141999 0.358661 -0.6937424 -1.4096911 -0.4408951 2.9770945e-13 0.45216408
-0.8593374 0.562046 -0.69734675 -1.2665823 0.5401657 -0.09169974 0.41829723 0.57779086
0.064084694 -0.38826746 0.86205703 -0.19248098 -0.4534574 -1.0240524 1.5448875 -0.31540316
-1.3237429 -0.43382597 0.64946187 0.0025562712 0.63121355 -0.38880384 0.7655688 1.2961807
0.08935769 0.0008515131 -0.00013678393 -0.2979586 -0.37132552 -0.34592095 5.549502e-11 -0.84745
-7.3412816e-06 -1.2937422e-14 -6.7240585e-27 3.748118e-27 6.953124e-27 -0.00068528 -6.202872e-08 -1.2452249e-10
5.7867216e-20 -1.821879e-10 5.0987168e-26 -6.0046226e-05 -4.0133633e-10 -1.4454449e-27 -6.501576e-09 -5.8640757e-07
-0.00031716764 -0.00088780455 -0.001155713 -4.8429963e-14 -7.468475e-09 -0.0029906891 1.4614391e-28 -6.8741285e-27
1.3026912e-26 -8.571092e-14 1.1955718e-27 -0.0023962941 -0.0024147169 -0.00014307909 8.618e-42 -0.009638578
00000000: 5a6f 8a3f 35f9 2a3f 7325 2bbf 0b77 b7be
00000010: 15f0 6ebe b124 9d3e d802 a03f 0b15 813f
00000020: 0066 5b3e b46e efbf f2c4 cdbe 4312 eabd
00000030: bbfc d43e 0b04 8cbe 2835 0dc0 3a1e 23bd
00000040: 7eb6 d2be f999 773f c35b 8cbe 99ce b8bd
00000050: 06a9 163f 258c ecbd 6a4e 83be 3efa b3be
00000060: d353 283e 6873 16be d6e9 21be 7a80 c0bc
00000070: e13f afbd f19e efbe 8f23 0080 efa0 2dbd
00000080: 889e 2ebf b8a2 28bc 7f5d 84be a693 a8bd
00000090: f5c1 eeba 290e 293f 7a9a b7be 128a 96be
000000a0: 5b78 77bf 4cb9 cdbe 5f27 9b3d 6c1f 933e
000000b0: 4b20 583e fba9 dd3b 6245 063e a39f 4f3f
000000c0: 1296 973e a0a4 b03e 55c4 2ebf c5ab c83d
000000d0: d06d dfbe 02b3 cd3e 5205 4d3b a037 363e
000000e0: 4b2c ccbe 344e 5c3e 11d8 b0bb 5ba7 da3e
000000f0: 5229 e93e 52c4 0b3f d61c 0080 7739 2d3c
00000100: 69d2 323e 9a78 b83e 674b 8cbe 4708 75be
00000110: 5a48 96bd e7be 573f 4af7 a13e 5a20 a2bd
00000120: f71c c73e 319b 4ec0 6b0e 14be 2d17 c7be
00000130: ed7f 8b3f b41e 85be 91dd 5b3f 8584 d43e
00000140: 70bc 00bf ef79 97bf 01af c03e aad1 40be
00000150: 73b0 ff3d 3285 2ebe 5f2b 81bd 729b 2bbd
00000160: 5611 7f3e 6c1f 6bbe f117 07be 9b16 fd3e
00000170: f1b3 29be 36a5 d0be 0819 0080 ffe3 663f
00000180: 18a3 c03e d8d3 9b3e 9550 dfbd c33f 31bd
00000190: 764d bfbd 3cfd 1fbf c269 013f 4ae9 c73e
000001a0: 5a8d 94be 86db 3cc0 9746 a6be 03a7 b0be
000001b0: 842e f63e 81a3 74bb 401c 453f 020e b9be
000001c0: 84dc 3d3f ecbb d9be b77c 193f d79b 42bf
000001d0: 62b9 473f cde5 57bd 67ee c9bd 3c68 01be
000001e0: b3a9 67be 9aae 0ebf 2ba6 81bb 9efb 22be
000001f0: 92a8 94bd 47ef f7be 1407 0000 46a7 7e3e
00000200: 78d4 ac3f fc0a ca3b e67f 1abe 8aae ebbd
00000210: b548 3ebe c207 66be 5eff c03f a28e aa3f
00000220: 3fd1 1b3e 873d 72be 4698 d2be 8e3e f5bd
00000230: 3e3e 15bf bcdb 29be 2489 713e 0481 d1bf
00000240: 29f7 33bf ddf5 ffbe d2bd 5cbc ecba 833e
00000250: 0dc3 243f bc05 05bf 4fd3 0fbe 595c 28bd
00000260: 31d0 b33d 46e1 e43d 27ce d63d 7706 d1be
00000270: 88df fdbe 0560 85bf a15f 652c decf edbe
00000280: 114a 11be b356 eebe 043d ab3d 424c 2c3f
00000290: 308b a6bf 0ffe ed3e c5e9 8d3c adc5 2f3f
000002a0: ccf8 363f 651c 293e 743e bfbf a358 42bf
000002b0: 985d 543f 93f4 303f a334 65be 3f68 4dbf
000002c0: f5fd 3f3f c3cd e2bf 9bec cc3f 54b0 c23d
000002d0: 2371 b4be 21b0 bcbf f3ad a0bf 694e 1fbf
000002e0: 189a c13e e91a 3bbc 6aa2 b73e 1a99 31bf
000002f0: c270 b4bf 01bd e1be 7498 a72a 0d82 e73e
00000300: 89fd 5bbf 3fe2 0f3f 5185 32bf 5e1f a2bf
00000310: 4d48 0a3f 13cd bbbd 0e2b d63e 1aea 133f
00000320: d63e 833d feca c6be c5af 5c3f bc19 45be
00000330: 912b e8be 2614 83bf e0be c53f 867c a1be
00000340: 6870 a9bf 701e debe 2243 263f 1d87 273b
00000350: 3697 213f 4c11 c7be 51fc 433f 40e9 a53f
00000360: 2a01 b73d 1438 5f3a a86d 0fb9 088e 98be
00000370: 611e bebe 8d1c b1be d611 742e 7cf2 58bf
00000380: 2155 f6b6 540f 69a8 072f 0594 6f7a 9413
00000390: 87b8 0914 5da4 33ba a634 85b3 f7e9 08af
000003a0: 96a2 881f 5651 48af ea79 7c15 25da 7bb8
000003b0: 11a3 dcaf 360a e592 7864 dfb1 9f69 1db5
000003c0: 8549 a6b9 8ebb 68ba 4b7b 97ba f21b 5aa9
000003d0: b34e 00b2 70ff 43bb 6942 3911 f927 0894
000003e0: 2503 8114 fb00 c1a9 2772 bd12 250b 1dbb
000003f0: 3a40 1ebb 8007 16b9 0618 0000 20eb 1dbc

module_8.weight f4 [12, 64]
-0.6074422 0.080632456 0.22261815 -0.16475429 0.56504977 -0.31288233 -0.3634462 -1.3775036
0.23182935 0.8725646 0.6703649 -0.035645597 -0.27599967 -0.100891165 1.051535 0.04689231
-0.5174357 0.15454452 -0.77081066 -0.07495038 -0.34409124 -0.09014158 0.53703964 0.098765805
0.25453445 0.0014437808 -0.1571866 -0.38512352 -0.09629671 0.21945699 3.9913366e-15 -0.90128666
0.6808343 0.21739748 1.2896124 0.6177408 -0.95825845 -1.5581611 -0.89723486 0.011087571
0.99865866 1.2387254 -0.17925987 -7.384024e-07 -0.6292274 0.040114578 0.0930392 0.32956353
2.4623175 -1.1742399 0.045480013 -2.3568347 -0.6497533 -0.23752378 0.10637215 -0.6838712
-0.054924686 -0.017603891 0.23243041 -2.307368e-13 -0.05126897 -0.57512814 0.48698476 -0.12748054
-0.4937191 -0.1429106 -0.25610852 -0.18071435 -0.42002478 0.0058144173 -0.41018125 -0.14492054
0.5005801 0.6351175 -0.11866368 -0.3976732 0.27412176 -0.17340194 -0.16683155 -0.2607719
-0.4976485 -0.5908401 -0.022204358 -0.049302407 -0.41872743 -0.90466297 -0.39194205 -0.16724
0.30604923 -0.036753695 0.0045935335 -0.589982 -0.86209357 -0.38804936 4.7422232e-26 -0.9222083
0.092430644 -0.60320127 -1.3206513 -1.7865156 0.8327283 1.1642145 0.5140056 -1.1114445e-19
-1.3274283 -0.31454086 0.5076239 7.51e-42 1.0701517 -8.4829466e-05 -2.8128648 0.2871173
-0.51454526 1.4485958 -0.009966157 0.9541576 0.8316083 0.29525262 0.24278967 -0.6850983
-5.610151e-06 6.5034833e-06 -0.18618411 7.191476e-18 -0.056840938 0.9815498 0.21218295 0.10213995
-0.44248143 0.27531156 0.19922611 -0.0106204385 0.082109176 -0.15464121 1.1739672 0.72930014
0.07208587 0.23900367 -0.18232305 0.09693801 -0.18020615 -0.016033271 0.043948654 -0.33237395
0.09618864 0.8124671 0.27661425 -0.065347776 -0.6491513 0.15651755 0.048807345 0.19506508
0.07565315 -0.13573965 0.051856827 0.014020139 0.1515684 -0.33267224 -1.0250692e-11 0.52366245
-0.04582681 -0.1467995 -1.2753344 -1.1690392 0.59954536 0.5758914 0.2537719 0.0023815094
1.3062814 1.2060522 1.3060572 3.3539166e-08 0.37048218 -0.039737295 -0.68162537 -0.37053743
-0.715163 -0.26131883 -0.089277446 -1.5958167 0.13304088 0.5785954 -0.12808873 -0.09500386
-0.01828146 0.030904578 -0.062863186 0.00019761134 -0.012524676 -0.13733508 0.5066682 -0.031632394
0.59009933 0.04988832 0.16498624 0.1661128 -0.10254405 -0.31255993 0.24658978 -0.25457272
0.21725692 0.19166036 0.102935016 0.20792738 0.012196221 0.14520258 -1.0253742 -0.3669478
-0.19281521 0.10646984 0.64885455 0.06138697 0.58092386 0.39831057 -0.10385765 -0.18964845
0.18640108 0.01447817 0.0067301854 0.2684119 0.43964916 -0.32856974 4.672876e-13 0.45338136
0.16978858 -0.7230931 0.28095612 0.6665817 -0.025022928 -0.9043402 0.6261194 -0.00027838929
-1.19353 -0.76750845 -0.46001625 2.231397e-19 0.57773554 -0.048201554 0.86539644 -1.7668588
-0.8750966 -1.601718 -0.19990996 0.3813029 -0.1262563 0.81165844 0.29350162 0.9301353
0.0865414 -1.7450313e-05 -1.6470846 1.2499297e-05 0.0011477949 0.7340668 -1.0481455 0.06627291
00000000: 5581 1bbf a122 a53d 03f6 633e 59b5 28be
00000010: 1aa7 103f 1d32 a0be 9f15 babe 0a52 b0bf
00000020: ac64 6d3e 6560 5f3f 099d 2b3f 1e01 12bd
00000030: d44f 8dbe 07a0 cebd b398 863f 2712 403d
00000040: ab76 04bf eb40 1e3e d953 45bf 967f 99bd
00000050: ba2c b0be 269c b8bd 6e7b 093f ba45 ca3d
00000060: 5752 823e 3f3d bd3a 86f5 20be e92e c5be
00000070: 3637 c5bd 55b9 603e 95cd 8f27 b9ba 66bf
00000080: 284b 2e3f 729d 5e3e 0512 a53f 4324 1e3f
00000090: 6d50 75bf d371 c7bf 2fb1 65bf a5a8 353c
000000a0: 18a8 7f3f 8e8e 9e3f e68f 37be a036 46b5
000000b0: 0c15 21bf 2f4f 243d 568b be3d 8dbc a83e
000000c0: 9c96 1d40 7e4d 96bf 4049 3a3d 61d6 16c0
000000d0: 3b56 26bf 6f39 73be a4d9 d93d 2f12 2fbf
000000e0: b5f8 60bd 0936 90bc 3d02 6e3e ade4 81aa
000000f0: 69ff 51bd 993b 13bf 1156 f93e 428a 02be
00000100: c0c8 fcbe 2857 12be a820 83be 2f0d 39be
00000110: 7d0d d7be de86 be3b 4703 d2be 0d66 14be
00000120: 0426 003f 0f97 223f f205 f3bd d29b cbbe
00000130: b059 8c3e 4790 31be e4d5 2abe e583 85be
00000140: c9cb febe 4c41 17bf eae5 b5bc 52f1 49bd
00000150: 7163 d6be fe97 67bf a1ac c8be f640 2bbe
00000160: 7cb2 9c3e 0b8b 16bd 5a85 963b 0f09 17bf
00000170: 2ab2 5cbf 68ae c6be d2d2 6a15 d815 6cbf
00000180: 474c bd3d 666b 1abf 1a0b a9bf 8bac e4bf
00000190: af2d 553f fb04 953f df95 033f 5937 03a0
000001a0: 2ce9 a9bf 800b a1be a4f3 013f ef14 0000
000001b0: bbfa 883f 79e6 b1b8 fa05 34c0 0a01 933e
000001c0: 3db9 03bf 966b b93f 1849 23bc ac43 743f
000001d0: 48e4 543f 5a2b 973e db9d 783e 9a62 2fbf
000001e0: d53e bcb6 7f38 da36 0ca7 3ebe c9a8 0423
000001f0: 0bd2 68bd d946 7b3f 7d46 593e c02e d13d
00000200: ed8c e2be a3f5 8c3e ee01 4c3e 5901 2ebc
00000210: db28 a83d 445a 1ebe 8f44 963f 6ab3 3a3f
00000220: c2a1 933d 61bd 743e e5b2 3abe 6f87 c63d
00000230: f687 38be 3558 83bc 8103 343d eb2c aabe
00000240: 8dfe c43d d8fd 4f3f 62a0 8d3e 0ed5 85bd
00000250: c82e 26bf 2346 203e 36ea 473d 24bf 473e
00000260: 0af0 9a3d 56ff 0abe d367 543d bab4 653c
00000270: bf34 1b3e 0454 aabe 0355 34ad be0e 063f
00000280: e5b4 3bbd 9c52 16be 283e a3bf 14a3 95bf
00000290: ce7b 193f 9e6d 133f 64ee 813e 1913 1c3b
000002a0: 3b34 a73f eb5f 9a3f e22c a73f b40c 1033
000002b0: d7af bd3e 93c3 22bd 007f 2ebf 15b7 bdbe
000002c0: ec14 37bf 95cb 85be 18d7 b6bd b943 ccbf
000002d0: de3b 083e d41e 143f b129 03be 6291 c2bd
000002e0: 00c3 95bc 992b fd3c 6abe 80bd e435 4f39
000002f0: 4c34 4dbc 91a1 0cbe 02b5 013f f890 01bd
00000300: c010 173f b257 4c3d 27f2 283e 7919 2a3e
00000310: 9d02 d2bd db07 a0be 0882 7c3e 5b57 82be
00000320: 9978 5e3e 9d42 443e 98cf d23d eaea 543e
00000330: a9d2 473c fcaf 143e 763f 83bf 95e0 bbbe
00000340: 5a71 45be dc0c da3d 551b 263f e770 7b3d
00000350: 6db7 143f 5def cb3e 52b3 d4bd 3433 42be
00000360: eddf 3e3e d935 6d3c e388 dc3b 496d 893e
00000370: b219 e13e 4b3a a8be 9f87 032b 9a21 e83e
00000380: 0fdd 2d3e a11c 39bf 7bd9 8f3e 19a5 2a3f
00000390: e2fc ccbc d782 67bf 5c49 203f c7f4 91b9
000003a0: 97c5 98bf 6f7b 44bf 4087 ebbe ebb7 8320
000003b0: 7ae6 133f fe6e 45bd 9f8a 5d3f 6e28 e2bf
000003c0: 5506 60bf 1805 cdbf 32b5 4cbe 223a c33e
000003d0: 5549 01be d9c8 4f3f d845 963e 591d 6e3f
000003e0: 9e3c b13d 4362 92b7 abd3 d2bf 12b4 5137
000003f0: 9b71 963a cdeb 3b3f a229 86bf 17ba 873d

module_8.bias f4 [12]
-0.42902347 0.090163395 0.11453202 0.41070533 0.29809108 -0.16375166 0.33602703 -0.32993153
-0.4325229 0.3419112 -0.20549238 -0.027645152
00000000: f7a8 dbbe 96a7 b83d c48f ea3d f847 d23e
00000010: 659f 983e 84ae 27be bc0b ac3e c9ec a8be
00000020: a473 ddbe fc0e af3e 986c 52be 1678 e2bc
