models/32_model_64_window_last.pt (torch, 10583 bytes, 6 tensors)

module_1.bias f4 [32]
0	0xbf68f611	-0.9100047
1	0xbf802541	-1.0011369
2	0x3ddd3474	0.1080102
3	0xbeb33101	-0.34998325
4	0xbf869279	-1.051345
5	0xbef8ee02	-0.48619086
6	0xbf5c3204	-0.8601382
7	0xbf1f9fa7	-0.62352985
8	0x3fa4b4b4	1.2867646
9	0x3f8585ef	1.0431498
10	0xbe9ca527	-0.3059475
11	0xbe1e4207	-0.15454875
12	0xbf3d5e17	-0.73971695
13	0xbdbae4b5	-0.09125654
14	0xbf3ca79a	-0.7369324
15	0xbfae2787	-1.3605813
16	0x3ea4488a	0.32086593
17	0xbf4d6e37	-0.802463
18	0x3fbe7dce	1.4882143
19	0xbf4024da	-0.7505623
20	0xbfb310a0	-1.3989449
21	0xbe07472e	-0.13210747
22	0xbf8a210e	-1.0791337
23	0xbf84083f	-1.0315017
24	0x3f74f1ee	0.95681655
25	0xbdf584ec	-0.119882435
26	0xbf5e2041	-0.86767966
27	0x3e727bb7	0.23680006
28	0xbd9cf0c4	-0.0766311
29	0xbf8b87c0	-1.0900803
30	0x3f20dadc	0.6283395
31	0x3f41d512	0.75715744

module_1.lin.weight f4 [32, 3]
0	0x40383862	2.8784413
1	0xbf8f6413	-1.1202415
2	0xbf2fbe0d	-0.6864937
3	0xbfec80d1	-1.8476812
4	0x3f2bf84a	0.67175734
5	0xbee17f72	-0.44042546
6	0xbf38358e	-0.7195672
7	0xc00789a3	-2.1177757
8	0xbef0cbc8	-0.47030473
9	0xbf3316aa	-0.6995646
10	0xbf818715	-1.0119349
11	0xbed9d29d	-0.42543498
12	0xbd29fcdc	-0.04150091
13	0xc010cd56	-2.2625327
14	0x3f795d10	0.9740763
15	0x3e922544	0.28544056
16	0x3f2c7bb5	0.6737626
17	0xbfb93604	-1.4469609
18	0xc0345a8e	-2.818027
19	0xbdae8ceb	-0.08522972
20	0xbf17e2ba	-0.5933033
21	0xc02b0d30	-2.67268
22	0xbf53b120	-0.82692146
23	0xbf46f4b5	-0.77717143
24	0xbe4e8f8e	-0.2017195
25	0xbf94140e	-1.156862
26	0x3e1a65d5	0.15077908
27	0xbeb56be3	-0.35433874
28	0xc07a1687	-3.907625
29	0xbe3494b2	-0.17634848
30	0x3ed0eeb4	0.40807116
31	0xc013586b	-2.3022716
32	0x3f9ba27b	1.215896
33	0xbcd9d72d	-0.026591862
34	0x3ff1b79c	1.8884158
35	0xbdad6929	-0.08467323
36	0xbfa86939	-1.3157111
37	0x3e291022	0.1651006
38	0xbf9e8ed5	-1.2387339
39	0xbe0883b7	-0.13331495
40	0xbfae698e	-1.3625963
41	0xbeb9a530	-0.3625884
42	0x3f93940a	1.1529553
43	0xbea8f5ac	-0.32999933
44	0x40411a95	3.0172474
45	0xbf868064	-1.0507932
46	0x3ff4df20	1.9130592
47	0xbe31c6ce	-0.17360994
48	0xbe1ff72c	-0.15621632
49	0x3fa95ec5	1.3232046
50	0x3fd100ca	1.6328366
51	0x3fbfc363	1.4981502
52	0x3ffa2cdd	1.9544941
53	0x3dc929e4	0.09822443
54	0x3e60934f	0.21931194
55	0x3f444291	0.7666407
56	0x3f43e404	0.765198
57	0xbe4fb3aa	-0.2028338
58	0x3f80749e	1.0035589
59	0xbe988376	-0.29787797
60	0x4019180d	2.392093
61	0x3df4fee7	0.11962681
62	0x3ebd53d4	0.36978018
63	0x3c759ce6	0.014991021
64	0x400efe44	2.2342691
65	0xbc7c37f4	-0.0153942
66	0x3c50403e	0.012710629
67	0xc0181433	-2.3762329
68	0x3f8b3def	1.0878276
69	0x3e62736d	0.22114344
70	0xbfe7201f	-1.8056678
71	0x3fd27fc4	1.6445241
72	0xbdecdc18	-0.11565417
73	0xbf61ec17	-0.8825087
74	0x3e0600b2	0.13086203
75	0x3d9ecddf	0.077541105
76	0x3fdbbaae	1.7166345
77	0xbd7074a5	-0.05870499
78	0xbf3bdd58	-0.7338462
79	0xbeccb934	-0.3998505
80	0xbf0a56c6	-0.54038656
81	0xbeb2594c	-0.34833753
82	0x3fc95488	1.5728922
83	0xbf670179	-0.9023662
84	0x3df988a5	0.12184266
85	0x400c1ddb	2.1893222
86	0xbca4087a	-0.020023573
87	0xbf4c3bd8	-0.79778814
88	0x4019a349	2.4005911
89	0x3f6bb5da	0.9207436
90	0xbbbb26aa	-0.005711396
91	0xbea4f521	-0.3221827
92	0x3e7feb6b	0.24992149
93	0xbf82dd38	-1.0223761
94	0x3f216859	0.63049847
95	0xbf8660f8	-1.0498343

module_3.bias f4 [32]
0	0xbe84ad4c	-0.25913465
1	0xbec5c55f	-0.38627145
2	0x3edc78b4	0.4306084
3	0x3cbcf31e	0.023065146
4	0x3e83ecf3	0.25766715
5	0x3eb47dc1	0.35252193
6	0xbe13e50a	-0.1444284
7	0xb90320bc	-0.00012505328
8	0xbf6d0d64	-0.9259856
9	0x3e666881	0.22500803
10	0xbd238133	-0.039918136
11	0xac8e6c8a	-4.047933e-12
12	0xbd499b39	-0.049220297
13	0x3e9fc111	0.31201985
14	0x3f16772a	0.5877558
15	0x3f075b20	0.5287342
16	0xbfec0f6a	-1.8442204
17	0x3f8da21c	1.1065097
18	0xbd9c068a	-0.07618435
19	0xbe48714e	-0.19574472
20	0x3d361800	0.044456482
21	0x3f0968da	0.53675616
22	0xbe6ee314	-0.23328811
23	0x3f0c7e97	0.5488066
24	0xb5891d23	-1.0215775e-06
25	0xa17aa3c3	-8.492003e-19
26	0x3f9b5c30	1.2137508
27	0xb624a33f	-2.4532926e-06
28	0xbec79959	-0.38984182
29	0x3e0fe01c	0.14050335
30	0x3edcc36e	0.4311785
31	0x8d66f71f	-7.1171683e-31

module_3.lin.weight f4 [32, 32]
0	0x3f2b5aa7	0.669352
1	0x3f64fd22	0.8944875
2	0xbf791bc9	-0.9730802
3	0xbe555bc8	-0.20835793
4	0xbe237584	-0.15962797
5	0x3ec269f7	0.3797147
6	0x3fa4ce1c	1.28754
7	0x3f8bcef7	1.0922536
8	0x3e15a628	0.14614165
9	0xbfeaaa02	-1.8333132
10	0xbef50948	-0.47858644
11	0x3d227d54	0.039670303
12	0x3efee752	0.49785858
13	0xbf0d561a	-0.55209506
14	0xbfae414e	-1.361368
15	0xbcb39edf	-0.021926342
16	0xbe835721	-0.25652412
17	0x3f3f0b23	0.7462637
18	0xbe7bfd67	-0.24608384
19	0xbe06a28d	-0.13147946
20	0x3f2843b0	0.6572828
21	0xbb9dcd87	-0.0048157605
22	0xbe3487d0	-0.17629933
23	0xbec0a22e	-0.37623733
24	0x3e2e5006	0.17022714
25	0xbb8530cb	-0.0040646545
26	0x3ec25303	0.37953958
27	0x3cd77b17	0.026303811
28	0x3d070997	0.03296813
29	0xbea19e0d	-0.31565896
30	0xbe071d79	-0.13194837
31	0xbe02b61b	-0.1276478
32	0xbf4b9bfd	-0.79534894
33	0x3dc48bd4	0.095969826
34	0xbe1e94f7	-0.15486513
35	0x3b83edcc	0.0040261503
36	0x05345143	8.478485e-36
37	0x3eeaa434	0.45828402
38	0xbeb97822	-0.36224467
39	0xbeb6b020	-0.35681248
40	0xbfa86707	-1.3156441
41	0xbe408a07	-0.18802653
42	0x3db2a4c0	0.0872283
43	0x3f01b251	0.50662714
44	0x3e9a2cd2	0.3011232
45	0xbdaa5f9b	-0.083190165
46	0xbe08141e	-0.13288924
47	0x3f2e9a5b	0.6820428
48	0x3dfcf7b1	0.12351931
49	0x3f32136a	0.69560874
50	0xbf238739	-0.6387821
51	0x3f0d6454	0.55231214
52	0xbf2f7d12	-0.6855022
53	0x3f02c94d	0.5108841
54	0xb3c7dfc2	-9.307361e-08
55	0x3d76e893	0.060280394
56	0xbf83c64b	-1.0294889
57	0x3f0b24e3	0.5435316
58	0x3db9b4ce	0.09067689
59	0x3f0d7d58	0.55269384
60	0x3f1e9efa	0.6196133
61	0x3f40ba8d	0.75284654
62	0xbf2e66b7	-0.6812548
63	0x3cd69a23	0.026196545
64	0xbdb4cbe2	-0.0882795
65	0x3ef9498f	0.48688933
66	0xbf7d4f47	-0.9894909
67	0xbda0da4f	-0.07854139
68	0xbcb239cd	-0.021756077
69	0x3f789eff	0.9711761
70	0x3ef8bcbc	0.48581493
71	0x3e394fb6	0.18096814
72	0xbe003f1b	-0.12524073
73	0xc01819b2	-2.3765683
74	0xbcd1466d	-0.025546277
75	0xbc534388	-0.012894519
76	0x3f8dedd9	1.108821
77	0xbf0f3c4e	-0.5595139
78	0x3e2cf414	0.16889983
79	0x3e4db3b6	0.20088086
80	0xbf23e9a0	-0.6402836
81	0xbf8cbf7a	-1.0995934
82	0xbe3e1299	-0.18561782
83	0xbb600838	-0.0034184586
84	0xbe98ed62	-0.2986861
85	0xbd1acd2a	-0.037793316
86	0xbcae54b2	-0.02128062
87	0xbe04ea69	-0.12980045
88	0xbda595af	-0.080851905
89	0xbd2d2320	-0.042269826
90	0x3ea79bb6	0.32735986
91	0x3f2a7468	0.6658387
92	0xbd6edc66	-0.058315657
93	0xbe957907	-0.291939
94	0xbe75a066	-0.23986968
95	0x3f701175	0.9377664
96	0x3e6c39c7	0.23068915
97	0x3f1a3568	0.6023774
98	0xbf526c2f	-0.82196325
99	0xbe830e08	-0.25596642
100	0x3cd1d419	0.025613831
101	0xbea512af	-0.32240817
102	0x3f08fd51	0.5351153
103	0x3eab2e47	0.33433744
104	0xbead8867	-0.3389313
105	0xc009065d	-2.1410134
106	0xbdfc79fc	-0.12327954
107	0x3ca371ce	0.019951727
108	0x3f0a6dcf	0.54073805
109	0xbe5d4a41	-0.21610357
110	0x3f7cd23b	0.98758286
111	0xbe1ac071	-0.15112473
112	0x3f0154c4	0.5051997
113	0xbed8e27d	-0.42360297
114	0x3ea33fe4	0.31884682
115	0xbea54994	-0.32282698
116	0x3f71312d	0.9421566
117	0x3dde9a0d	0.108692266
118	0x3d4d564c	0.050131127
119	0x3d2d4386	0.042300723
120	0xbe402f83	-0.18768124
121	0xbb9f7398	-0.004866075
122	0x3e38e363	0.18055491
123	0xbdf52d7c	-0.11971566
124	0x3d18ba88	0.037287265
125	0xbe0553c9	-0.13020243
126	0x3e911359	0.28335074
127	0x3e1548c3	0.14578538
128	0x3f9f51f4	1.2446885
129	0x3ec7d70a	0.3903125
130	0xbef7b444	-0.4837972
131	0xbc8437a4	-0.016139813
132	0xbedd1630	-0.4318099
133	0xbe6adefe	-0.22936627
134	0x3f5c563c	0.86069083
135	0x3f486da0	0.78292274
136	0x3e86262e	0.26201004
137	0xbecc11c6	-0.3985731
138	0xbec86767	-0.3914139
139	0xbf232611	-0.6372996
140	0xbcccbb15	-0.024991551
141	0xbe009945	-0.12558468
142	0x3f2461d6	0.64211786
143	0xbf13adeb	-0.5768725
144	0x3c96f134	0.018425561
145	0xbf72e3ad	-0.94878656
146	0x3eb49386	0.352688
147	0xbe3e2193	-0.18567495
148	0x3f1d4953	0.6144001
149	0xbf510c2b	-0.8165919
150	0xbecbe1fa	-0.39820844
151	0xbe272246	-0.16321668
152	0x3e77f397	0.24214016
153	0xbf2b5baa	-0.66936743
154	0x3e9ee328	0.3103268
155	0xbf4e4df5	-0.80587703
156	0xbf5a5b50	-0.8529558
157	0xbecd986b	-0.40155348
158	0x3d96ab82	0.07356931
159	0xbf12aea7	-0.5729775
160	0x3dc083f7	0.0940017
161	0xbf0e426c	-0.555701
162	0x3de9ca42	0.11415531
163	0x3e3b1e99	0.18273391
164	0xbf997e73	-1.1991714
165	0x3e9a6f33	0.30162963
166	0x3dcdf492	0.10056414
167	0x3ef36e47	0.47545072
168	0x3f28fdca	0.6601225
169	0x3dc3921a	0.09549351
170	0xbfb7cb9d	-1.4359013
171	0xbf808732	-1.0041258
172	0x3f1928df	0.5982799
173	0x3c90815e	0.017639812
174	0xbe9c7c59	-0.3056362
175	0xbf33a67d	-0.70175916
176	0x3efc2468	0.49246526
177	0xbf962903	-1.1731266
178	0x3fa62c30	1.2982235
179	0xbe80281c	-0.250306
180	0xbf05332f	-0.52031225
181	0xbf95948d	-1.1685959
182	0xbf959a39	-1.168769
183	0xbf27b437	-0.6550936
184	0x3f005199	0.5012451
185	0xbf5bde56	-0.8588613
186	0x3ef0ae3c	0.4700793
187	0xbf137954	-0.5760701
188	0xbf8ca7d8	-1.0988722
189	0xbdaba06a	-0.08380206
190	0x3f12f256	0.57401025
191	0x3f12f34d	0.574025
192	0xbf5c37ab	-0.8602244
193	0x3f174807	0.5909428
194	0xbf076501	-0.52888495
195	0xbf078fcd	-0.529538
196	0x3ef0d2ff	0.47035977
197	0xbd2db58a	-0.042409457
198	0x3ec16f90	0.37780428
199	0x3edf4eb2	0.43614727
200	0xbccfe08c	-0.025375627
201	0xbed747c3	-0.42046937
202	0x3f38afc1	0.7214318
203	0xbee9cfa3	-0.45666227
204	0xbf018289	-0.50589806
205	0xbee6988f	-0.45038268
206	0x3fc824b2	1.5636199
207	0xbe5db145	-0.21649654
208	0xbfa50dce	-1.2894838
209	0xbec68e45	-0.38780418
210	0x3f1a057a	0.60164607
211	0xbc9d9303	-0.01923514
212	0x3f186aa5	0.59537727
213	0xbf125df8	-0.57174635
214	0x3f485ff6	0.78271425
215	0x3fa0da1e	1.2566564
216	0x3d808493	0.062752865
217	0xbed44092	-0.41455513
218	0xbddd38b9	-0.108018346
219	0xbe9b9ba4	-0.30392182
220	0xbf09d0bc	-0.5383413
221	0xbf2d3443	-0.6765787
222	0x3e6b13a1	0.22956707
223	0xbf031be3	-0.51214427
224	0xbaf9ee02	-0.0019068124
225	0xabc8873a	-1.4248388e-12
226	0xb7326336	-1.0632726e-05
227	0xa441af83	-4.1998868e-17
228	0xaa4782f6	-1.7720187e-13
229	0xb94d711c	-0.0001959246
230	0xb3d7d53b	-1.0050504e-07
231	0xb47a8880	-2.3332723e-07
232	0xb8511a2e	-4.9853865e-05
233	0xbae6b9e5	-0.0017603008
234	0xb2801c2e	-1.4913976e-08
235	0xb8a5ed00	-7.911958e-05
236	0xb02a844f	-6.203366e-10
237	0xb3484978	-4.6632948e-08
238	0xb0a869bf	-1.2253664e-09
239	0x23c483a5	2.1306116e-17
240	0xb7533739	-1.2589438e-05
241	0xb8055ec3	-3.1797925e-05
242	0xba046144	-0.0005049894
243	0x1a432d08	4.036143e-23
244	0xb4ff8b90	-4.7598996e-07
245	0xb9aef9e9	-0.00033374064
246	0xabf74f9a	-1.7572499e-12
247	0x205a6425	1.8498453e-19
248	0xb647b81d	-2.9760479e-06
249	0xb8959641	-7.1328606e-05
250	0x97711881	-7.790223e-25
251	0xbaa5d635	-0.001265234
252	0xb9a19893	-0.0003082199
253	0xb520a922	-5.9850765e-07
254	0xb00fa391	-5.225554e-10
255	0xba9849ea	-0.0011618708

module_8.weight f4 [12, 64]
0	0xbf046941	-0.51723105
1	0x3da53f1f	0.0806868
2	0x3efb7374	0.4911152
3	0x3e20e083	0.15710644
4	0x3ef0cc6a	0.47030956
5	0xbea01b52	-0.31270844
6	0xbed4a1f5	-0.41529813
7	0xbfa3bb83	-1.2791599
8	0x3dd60b43	0.10451367
9	0x3f2edc97	0.68305343
10	0x3ed9b660	0.42521954
11	0xbe2ffb7c	-0.17185777
12	0xbd35b68e	-0.04436355
13	0x3e8b2c89	0.27182415
14	0x3f19672d	0.5992306
15	0x3c439afc	0.011938807
16	0xbef2809e	-0.47363752
17	0xbc88ebb8	-0.016713962
18	0xbf71ccdb	-0.9445321
19	0x3c7f8f14	0.015598077
20	0xbecd7126	-0.40125388
21	0xbe382ba3	-0.17985396
22	0x3ed93e59	0.4243038
23	0x3dc64d02	0.09682657
24	0x3df76a18	0.12080783
25	0xbe55ef62	-0.20892099
26	0x3d267812	0.04064185
27	0xbeaa00d9	-0.33203772
28	0xbe4d8bf5	-0.2007292
29	0x3d7bc80d	0.06147008
30	0xbe976092	-0.29565865
31	0xbf009054	-0.5022023
32	0x3f746a65	0.95474845
33	0x3e40dd3a	0.18834391
34	0x3fa31854	1.2741799
35	0x3f15e694	0.5855496
36	0xbf939b47	-1.1531762
37	0xbf93cbe3	-1.1546596
38	0xbf2bca0e	-0.67105186
39	0xbd8c3fd7	-0.06848114
40	0x3fa29c2d	1.2703911
41	0x3fa4aa31	1.2864438
42	0x3d9b5745	0.07585005
43	0xb9159da2	-0.0001426847
44	0xbf112e7d	-0.5671156
45	0xbf1eb66a	-0.6199709
46	0x3d443dfc	0.047910675
47	0x3e901123	0.28138074
48	0x400206fb	2.031676
49	0xbf85086f	-1.0393199
50	0x3cf3c078	0.029754862
51	0xbff444b3	-1.9083465
52	0xbf8f0ec0	-1.1176376
53	0x3e7bef70	0.24603057
54	0x3cb133bb	0.021631112
55	0xbf936674	-1.1515641
56	0xb724fc59	-9.833916e-06
57	0x390b0cbe	0.0001326082
58	0xbe7e1335	-0.24812014
59	0x36e1b861	6.726987e-06
60	0xbf1e84f7	-0.6192164
61	0xbf068971	-0.5255347
62	0x3e746b33	0.23869018
63	0x34a09914	2.99137e-07
64	0xbed444bd	-0.41458693
65	0xbe31b4b6	-0.17354092
66	0x3cda5bec	0.02665516
67	0xbe6a3391	-0.22871234
68	0xbe80782e	-0.2509169
69	0x3d777a40	0.06041932
70	0xbeb08316	-0.3447501
71	0xbdfbc715	-0.12293831
72	0x3f0fd861	0.56189543
73	0x3f16211c	0.5864427
74	0x3cbfd16d	0.023415292
75	0xbf256740	-0.6461067
76	0x3e1cb324	0.15302712
77	0xbd4a94f4	-0.04945846
78	0xbbc6cce5	-0.006066906
79	0xbe0ae6fa	-0.13564673
80	0xbf01cc9b	-0.5070283
81	0xbee3f396	-0.4452178
82	0xbda377c1	-0.079818256
83	0xbd59cdb1	-0.05317468
84	0xbe5f00ca	-0.21777645
85	0xbf50219d	-0.8130129
86	0xbe4c4137	-0.19946752
87	0xbda7a5c1	-0.08185912
88	0x3ee63e1d	0.44969264
89	0xbf23d0d6	-0.63990533
90	0x3e43d6aa	0.19124857
91	0xbf319c06	-0.693787
92	0xbf55d5df	-0.83529466
93	0xbee6f5d9	-0.45109442
94	0x3e665867	0.2249466
95	0xbf26e50f	-0.65193266
96	0xbe63bfe7	-0.22241174
97	0xbf015e77	-0.50534767
98	0xbf7102cc	-0.9414489
99	0xbfd18ad4	-1.6370492
100	0x3e9107ab	0.28326163
101	0x3f60e31c	0.8784654
102	0x3ea7acd3	0.32749042
103	0x39ebf506	0.0004500525
104	0xbfb940e5	-1.4472929
105	0xbe32f3d6	-0.17475829
106	0x3ecebbfa	0.4037779
107	0x33c7fbd9	9.3124704e-08
108	0x3f871b40	1.0555191
109	0x3f82e9e0	1.0227623
110	0xc0526bf6	-3.2878394
111	0x3e952fe0	0.29138088
112	0xbe890b13	-0.2676626
113	0x3f9d18be	1.2273176
114	0x3d1cacf4	0.03825088
115	0x3f8d6709	1.1047069
116	0x3f2f730f	0.6853494
117	0x3d85b53e	0.0652871
118	0x3d892c93	0.06697955
119	0xbf3e4f3a	-0.7433964
120	0x3100fbf4	1.876967e-09
121	0x1ac6d62b	8.223689e-23
122	0x3e188e6d	0.14898081
123	0x3048f77f	7.311129e-10
124	0x3f047d1a	0.5175339
125	0x3f73f63f	0.95297617
126	0x3e85c374	0.2612568
127	0x800279ba	-2.27338e-40
128	0xbf3a4a84	-0.7276995
129	0x3e750c8b	0.23930566
130	0x3ead83e2	0.3388968
131	0x3ea88ca9	0.32919815
132	0x3bfd1f76	0.0077246977
133	0xbe2b470f	-0.16726325
134	0x3f6dee63	0.92941874
135	0x3f0a6da2	0.54073536
136	0xbe14894c	-0.145055
137	0x3de882ce	0.11353074
138	0xbe07ae6b	-0.13250129
139	0x3d2d1379	0.0422549
140	0x3da2df40	0.07952738
141	0xbe8d0fe7	-0.27551195
142	0xbdf68740	-0.12037516
143	0xbe86b182	-0.26307303
144	0x3e044f16	0.12920794
145	0x3f3cb39f	0.7371158
146	0x3dc8a04c	0.09796199
147	0xbde88e2d	-0.11355243
148	0xbf476ef5	-0.7790368
149	0x3d7ecf0b	0.06220917
150	0xbd528afe	-0.051402085
151	0x3d09c76a	0.03363744
152	0xbddac5b2	-0.10682239
153	0x3de2d462	0.11075665
154	0x3ea6d530	0.32584524
155	0xbddd8474	-0.10816279
156	0x3e1e4fb2	0.15460089
157	0xbeab488a	-0.3345378
158	0x3ca39232	0.019967172
159	0x3e8bb5b5	0.2728707
160	0xbeaeb83f	-0.34124944
161	0x3eb70c56	0.357516
162	0xbf8cf154	-1.1011147
163	0xbf5b8669	-0.8575197
164	0xbf5e43a1	-0.86821944
165	0x3f0794b1	0.5296126
166	0x3db1cf35	0.086821
167	0xbd165c93	-0.03670938
168	0x3faad846	1.3347251
169	0x3fb0e325	1.3819319
170	0x3f990d5a	1.19572
171	0x3c07d6b5	0.008290936
172	0x3ed46ce8	0.4148934
173	0x3e1c3680	0.15255165
174	0xbf25c620	-0.6475544
175	0x3dfa52c1	0.12222815
176	0xbf2bb3fc	-0.6707151
177	0x3dbb7869	0.09153826
178	0xbd99825f	-0.074955694
179	0xbf2cc07d	-0.67481214
180	0x3ebe15e8	0.37126088
181	0x3ec607fc	0.38677967
182	0x3c168cd8	0.009188853
183	0xbd5bc4ea	-0.05365459
184	0x36c0be4c	5.7441994e-06
185	0x366998c1	3.480862e-06
186	0xbd53ca82	-0.0517068
187	0xb2c25dfe	-2.2627315e-08
188	0x3dfb68db	0.12275859
189	0x3e06e525	0.13173349
190	0x3e18c9f7	0.14920793
191	0xb5af7fed	-1.3075747e-06
192	0x3f04413c	0.5166204
193	0x3cd0ee78	0.025504336
194	0x3d5e396e	0.054253988
195	0x3d01d263	0.03169478
196	0xbd90a58b	-0.07062825
197	0x3d1639fb	0.03667639
198	0x3e10d855	0.14145024
199	0xbe791b56	-0.24326834
200	0x3e1e1544	0.154378
201	0x3e16580b	0.14682023
202	0x3dd9f8ad	0.10643134
203	0x3e9534cd	0.29141846
204	0xbe0bf172	-0.13666323
205	0x3e4ee3de	0.20204112
206	0xbf3b23d8	-0.7310157
207	0xbea3f5fa	-0.32023603
208	0x3c0aa991	0.008463279
209	0x3d9f8b32	0.07790221
210	0x3f3d6473	0.739814
211	0xbd3f065b	-0.04663692
212	0x3f3f890a	0.7481848
213	0x3ec01d33	0.37522277
214	0xbdb06c14	-0.08614364
215	0xbe023f60	-0.12719488
216	0x3e8e151e	0.27750486
217	0x3ebf0663	0.3730956
218	0x3e010a08	0.12601483
219	0x3e4a2742	0.19741538
220	0x3ef57223	0.47938642
221	0xbf1244c0	-0.57136154
222	0x3eaa1dd7	0.3322589
223	0x3ec8ead7	0.3924167
224	0x3e714b09	0.2356378
225	0xbf4174c4	-0.75568795
226	0x3dba674a	0.09101732
227	0x3e84a2c6	0.25905436
228	0xbf17f5c7	-0.593594
229	0xbf85e638	-1.0460882
230	0x3f106ae8	0.56413126
231	0xbb3a90da	-0.0028467686
232	0xbf988ec6	-1.1918571
233	0xbf791614	-0.97299314
234	0xbf3cc750	-0.73741627
235	0x3b8030a0	0.0039120466
236	0x3f04623c	0.51712394
237	0xbe880cf4	-0.26572382
238	0x3f3cce02	0.7375184
239	0xbf12ce05	-0.5734561
240	0xbf178c80	-0.5919876
241	0xbfbd727b	-1.4800562
242	0x3d8dd5cb	0.069255434
243	0x3ea8338b	0.32851824
244	0xbe7388fc	-0.23782724
245	0x3e9f60db	0.31128582
246	0x3eb8a369	0.36062172
247	0x3f585f9a	0.84520876
248	0x359d3a3e	1.1714362e-06
249	0xb04f7140	-7.54671e-10
250	0xbfd55a66	-1.6668212
251	0xb73c56a8	-1.1225849e-05
252	0x3edcdfdc	0.4313954
253	0x3efb724b	0.49110636
254	0xbfa0367f	-1.2516631
255	0x302be4d8	6.2534644e-10

module_8.bias f4 [12]
0	0xbf1c0355	-0.60942584
1	0x3da0b219	0.078464694
2	0xbe09c45c	-0.13453811
3	0x3f07d93f	0.53065866
4	0x3ebc2b85	0.36751953
5	0xbd7c19ef	-0.06154817
6	0x3dda5c4b	0.10662135
7	0xbe99a1f3	-0.3000637
8	0xbee37679	-0.44426325
9	0x3f1db976	0.61611116
10	0xbe44bf62	-0.19213632
11	0x3c99ad3d	0.018759364
