models/32_model_64_window.pt (torch, 10415 bytes, 6 tensors)

module_1.bias f4 [32]
00000000: c5bd 76bf 821f 82bf 123a 013e ddf8 91be
00000010: 6725 80bf f60d dbbe c88e 4dbf 59d2 0bbf
00000020: 7eee a03f 2e42 5b3f eb97 a1be f9cc 26be
00000030: f7f5 27bf d1c1 babd 6ea8 2cbf a161 a0bf
00000040: 36e0 8e3e 584f 4abf abf7 ba3f 4074 13bf
00000050: 6057 b5bf 5bc8 16be bb62 81bf 9e7c 81bf
00000060: c89c 7e3f aa8d c0bd 71e1 26bf bfe0 753e
00000070: 51b7 2bbd f3f3 70bf 040a 383f 1522 4a3f
-0.96383315 -1.0165865 0.12619808 -0.2851018 -1.0011414 -0.4278409 -0.8029599 -0.5461784
1.2572782 0.8564786 -0.31561217 -0.16289128 -0.6560969 -0.09118999 -0.67444503 -1.2529794
0.27905434 -0.7902732 1.4606832 -0.5759926 -1.416729 -0.14724867 -1.0108255 -1.0116155
0.9945798 -0.0940202 -0.65187746 0.24011515 -0.04192287 -0.94122237 0.7189028 0.78958255

module_1.lin.weight f4 [32, 3]
00000000: 1028 3540 c522 86bf 756d 26bf 3ea0 ebbf
00000010: b42b 273f d063 d2be 699c 29bf dcc0 05c0
00000020: 38a2 d3be 19e5 3dbf 8d8b 83bf 1889 a7be
00000030: e33b 9ebc a748 0dc0 b24e 6a3f b3ac a73e
00000040: 6a48 0f3f af55 b6bf 639b 2cc0 f87c 26be
00000050: 7664 0dbf 7821 24c0 70fc 4dbf 783b 2ebf
00000060: 68d3 6cbe 4bed 94bf cd83 ff3d 881a a0be
00000070: bc6f 66c0 14bf 4bbe f309 d43e f1e4 10c0
00000080: 7089 913f 6b10 1a3c 6082 f03f 2b20 0fbb
00000090: b558 b0bf 8979 453e a4a6 95bf a9bc f8bd
000000a0: fd79 b8bf 43b5 bcbe 052c 933f dbae aabe
000000b0: 4b5f 3240 d274 6cbf bab3 d83f 9e0d 10be
000000c0: fb69 16be b2f1 9f3f 8b75 c83f 4c1d b23f
000000d0: d524 e93f 5c85 003c edfe 5e3e 26f2 373f
000000e0: 560b 373f 183f d7be 11d8 7c3f d924 a6be
000000f0: 4d92 1140 5c29 753e 6c81 9b3e 502a 3e3d
00000100: 7ca7 0a40 f705 36bd 9853 193d 9028 13c0
00000110: 29e5 883f f363 8a3e fe99 e2bf ef0b cf3f
00000120: e4f9 0bbe fe7a 6bbf 44a8 133e e2f8 5b3d
00000130: e786 e23f 70e9 20be c9ad 87bf a045 56be
00000140: 4211 0fbf 5fe8 bcbe 8aa5 bb3f 229f 6dbf
00000150: 3059 a53d 76a1 0740 b067 adbd 6d7c 20bf
00000160: e3b9 1540 b7ec 783f 663f 38bd 555d a9be
00000170: a71b 9b3e b192 80bf da42 2a3f 7c76 65bf
2.8305702 -1.0479361 -0.6501077 -1.8408277 0.6530106 -0.41091776 -0.6625429 -2.0898962
-0.413347 -0.741777 -1.0276963 -0.32721782 -0.019315666 -2.2075593 0.9152633 0.32748947
0.5596987 -1.4244899 -2.696984 -0.1625861 -0.55231416 -2.5645428 -0.80463314 -0.6805949
-0.2312752 -1.1634916 0.12476311 -0.31270242 -3.6005697 -0.1989711 0.4141384 -2.2639735
1.1370068 0.009403328 1.8789787 -0.0021839242 -1.3777071 0.19284643 -1.169148 -0.12145359
-1.4412228 -0.36857042 1.1497809 -0.3333653 2.7870662 -0.92365754 1.6929848 -0.14067695
-0.14688866 1.2495635 1.5660871 1.3915191 1.8214365 0.007844295 0.21776934 0.71853864
0.7150167 -0.42040324 0.9876719 -0.32449988 2.2745545 0.23941559 0.3037218 0.04642707
2.1664724 -0.044439282 0.037433237 -2.2993507 1.0694934 0.2702938 -1.7703245 1.6175517
-0.13669544 -0.91984546 0.14419657 0.05370415 1.7697419 -0.1571405 -1.059991 -0.20924997
-0.5588571 -0.36896035 1.4659894 -0.9282094 0.08073652 2.1192298 -0.084670424 -0.6268986
2.3394706 0.972362 -0.044982336 -0.3307902 0.30294535 -1.0044767 0.6650826 -0.8963392

module_3.bias f4 [32]
00000000: 0d5c abbe 1bcd c4be 012f c73e 381d d8bd
00000010: 1852 993e 8dd2 da3e 818e 0dbe 2973 e2bb
00000020: c8e0 7abf b547 8a3e 03aa de3c 941c 90ba
00000030: 868f aabd 3b8c 743e 746b 083f 7bfe 0d3f
00000040: c3dd e4bf 9448 913f 4f10 eebd 4348 febd
00000050: a573 bfbc 7c43 0c3f 9bcb 8abe c8cc 273f
00000060: 8d4e 05a9 a2e2 32b4 f53f 933f 6768 caaa
00000070: 5a19 b1be 4498 643e ad0e f83e 6702 99ad
-0.33468667 -0.38437733 0.3890305 -0.10552448 0.29945445 0.42738762 -0.13823892 -0.006910701
-0.9799924 0.27007833 0.027180677 -0.0010994845 -0.08328156 0.23881619 0.5328896 0.5546643
-1.7880176 1.1350274 -0.11624204 -0.124161266 -0.023370573 0.54790473 -0.27108464 0.65546846
-2.9600064e-14 -1.665999e-07 1.1503893 -3.5954852e-13 -0.34589654 0.2232371 0.48448697 -1.7395153e-11

module_3.lin.weight f4 [32, 32]
00000000: 0244 4d3f 0459 693f af8a 7abf dfd2 6abe
00000010: 3375 11be 979e d23e 8dd6 9f3f ca44 863f
00000020: 3285 1f3d fcbf ddbf 4d10 b7be 746a 4b3d
00000030: 42bf 063f e4bf 0cbf 4576 9abf cd9b afbd
00000040: 9089 8dbe 803c 453f 564e 89be 3cc8 e9bd
00000050: e2a9 4e3f d48f b6ba ca8c 30be 7859 a5be
00000060: eb5c b73d 32aa 373b ae5d 113f a1fb d63b
00000070: 869e 293d 555f 9abe 6cfe 4fbe 4248 e6bd
00000080: 13bd 5abf 1828 1b3e f34c 22be 952d 153d
00000090: ad96 b9b8 6c82 d63e 040d a3be 0885 bebe
000000a0: 0d93 a9bf d86c 33be 8bcf 79bc b3d0 033f
000000b0: c5a3 aa3e fcc8 b9bd 0c86 46be a02b 313f
000000c0: 19bc 163e 291a 253f 7513 1bbf 6484 1c3f
000000d0: ef47 2ebf a302 013f b738 93ba 51fb c03b
000000e0: 7507 8cbf d111 103f 6ae3 a0bd 1dd0 093f
000000f0: a5cd 233f 8a20 3c3f 52b2 38bf e6ae d33c
00000100: 4661 7dbc d21b f03e acbf 89bf 99db 54be
00000110: 7a1f c0bc 5e01 7a3f c7fd f23e 48ce 4c3e
00000120: b936 3bbe 32bf 12c0 08b0 a9bc 7055 8dbc
00000130: c5c5 8f3f 9913 21bf 7c52 2a3e b4d8 143e
00000140: 4873 1cbf 28ef 8dbf 1539 7dbe 0c35 1f3e
00000150: 581c 98be 4edf 75bd 4b4f 03bd b508 c7bd
00000160: d6a2 fabd fa3d 5fbd c0f7 a53e 1c28 273f
00000170: 6b0d 9fbd 0b01 c5be 4301 8dbe 94a5 643f
00000180: 3179 903e ac7d 273f 3023 53bf 8bbf aabe
00000190: c791 4dbd 0f11 c3be 81e0 103f 479d a93e
000001a0: eaef e5be 6cbf eebf 6062 21be eb84 a73c
000001b0: a7c5 f63e adff 9fbe b20f 733f dd45 1abe
000001c0: 3da6 e83e e701 c7be 4a06 6d3e 441b 33be
000001d0: 4e9b 803f e480 df3d ff08 60bd f804 3dbd
000001e0: 3d77 8dbe f058 dcba bb9b 5b3e 4009 4abe
000001f0: 13d8 083c 8cbf 72bd 2b4e 603e 24bc 063e
00000200: 0d97 973f 13ec c43e 4c2d 0bbf b5f5 2cbe
00000210: 0fe8 e4be bd37 a8be dac6 5d3f ca9d 403f
00000220: cf90 903e b22d d3be ffb4 b1be 8de9 34bf
00000230: d6ac 20bd 7a35 61be 3f40 0b3f 4c1f 25bf
00000240: 77a7 bcbc c3d9 82bf 1a4a b23e d004 d9be
00000250: 7b13 053f 41c0 56bf cc5d bfbe 7982 09be
00000260: 9c97 8b3e ac8f 30bf eaea 613e 8d21 39bf
00000270: 51ef 59bf fa6b 0dbf 8541 c83d 05d3 cdbe
00000280: 04ea de3d 1a88 00bf 421c 2a3d b80f 023e
00000290: e7a8 91bf 85ac 533e c015 e93d 0fde cd3e
000002a0: b60e 283f c268 203d 09ab aabf 6c69 7cbf
000002b0: a039 0f3f db13 8fbd f29b babe 5ad7 1fbf
000002c0: 679b bd3e 0ac7 86bf 99bc 9f3f ed78 ddbe
000002d0: 5b18 17bf dd85 97bf 1857 88bf e773 12bf
000002e0: 3221 023f 730a 7dbf 52a5 d73e 2f1e 03bf
000002f0: acf3 92bf bd2d 8dbd ac5f 1c3f 50cb 103f
00000300: 2ddf 45bf 4bf4 1e3f ed26 ffbe 5928 e8be
00000310: df7f f03e e9f8 01be abc7 ce3e cca7 e43e
00000320: ce01 10bd ab30 d7be 0970 2f3f d4ab c2be
00000330: 9073 9dbe 1fd1 dfbe 6af4 c93f bde0 a2bd
00000340: 4855 8cbf 9277 a6be 10b1 1c3f bae8 49bd
00000350: 1a27 f93e d18a dbbe 4b3a 503f a17d a03f
00000360: 95d1 743d 8f54 a1be b67b cdbb 6df0 90be
00000370: 3337 ccbe 87f7 25bf 1f63 613e 205c 06bf
00000380: 392d cc3a 6787 d7b5 46e3 28bc cf69 4eb8
00000390: 3bd4 5fb9 0151 eeba 316d caba 8290 6ebb
000003a0: ec52 62bc 0f82 51bd dd62 e1ba 98b4 4dbb
000003b0: 6309 a6b8 f9f7 87ba f9ff cdba 5292 7cb2
000003c0: a40f f3bb 77ba 35ba 9364 9abc 2648 d3ad
000003d0: 3ffe 3438 23e1 bcbb 4529 c0b9 785b 95b8
000003e0: df63 b0bb 8722 2fbb 1200 baa9 6105 26bc
000003f0: 999e ddbb 71a9 dcba 8a3a 22ba c903 9ebc
0.80181897 0.9115145 -0.97867864 -0.22932003 -0.14204864 0.4113662 1.2487351 1.0489743
0.038945384 -1.7324214 -0.35754624 0.04966207 0.52635586 -0.549803 -1.2067343 -0.085746385
-0.27644014 0.7704544 -0.26817578 -0.11415145 0.8072797 -0.0013928362 -0.17241207 -0.32294822
0.089532696 0.0028025028 0.5678357 0.006560758 0.041410945 -0.30150858 -0.20311898 -0.11244251
-0.85444754 0.15152013 -0.15849666 0.036420424 -8.849553e-05 0.4189638 -0.31845868 -0.3721087
-1.3248001 -0.1752199 -0.015247236 0.51490325 0.3332807 -0.09071538 -0.19387072 0.6920719
0.14720191 0.6449304 -0.60576564 0.6113951 -0.6807851 0.5039465 -0.0011232112 0.0058893343
-1.0939776 0.56277186 -0.07855876 0.5383318 0.63985664 0.7348715 -0.72147095 0.025840234
-0.015465086 0.46896225 -1.0761619 -0.20786895 -0.02345251 0.97658336 0.47459242 0.20000565
-0.18282594 -2.2929196 -0.020713821 -0.017252654 1.123223 -0.6292053 0.16633028 0.1453579
-0.61113405 -1.108861 -0.24728806 0.1554758 -0.29709125 -0.060027413 -0.03205804 -0.097184576
-0.1223809 -0.054502465 0.3241558 0.6529558 -0.07766231 -0.38477358 -0.27540025 0.8931515
0.28217462 0.65426135 -0.82475567 -0.3334926 -0.050187852 -0.38098952 0.56592566 0.33127806
-0.44909602 -1.8652167 -0.15760183 0.020449122 0.48197672 -0.31249753 0.94945824 -0.15065713
0.4543933 -0.3886864 0.2314693 -0.1749087 1.0047395 0.10913256 -0.05469608 -0.046147317
-0.27630034 -0.0016811173 0.21446125 -0.19730091 0.008352297 -0.059264705 0.21904819 0.13157707
1.1842972 0.3846136 -0.5436599 -0.16890605 -0.44708297 -0.32855025 0.8663155 0.75240767
0.2823548 -0.412458 -0.34708402 -0.7066887 -0.03922733 -0.21993056 0.54394907 -0.6450088
-0.023029072 -1.0222706 0.3482216 -0.42386484 0.5198285 -0.83887106 -0.3737625 -0.13428678
0.27264106 -0.68969226 0.22062269 -0.7231682 -0.8513079 -0.55242884 0.09778122 -0.40200058
0.10884479 -0.50207675 0.041530855 0.12701309 -1.137967 0.2067128 0.113811016 0.4020848
0.6564745 0.039162405 -1.3333446 -0.9859836 0.55947304 -0.06986209 -0.36447102 -0.62437975
0.37032625 -1.0529492 1.247943 -0.43256322 -0.5902154 -1.1837727 -1.0651579 -0.572081
0.508319 -0.9884407 0.42118317 -0.5121793 -1.1480613 -0.068934895 0.61083484 0.5656023
-0.77293664 0.6209151 -0.49834386 -0.45343283 0.46972558 -0.12692608 0.4038671 0.4465927
-0.03515797 -0.42029318 0.6853033 -0.3802172 -0.3075223 -0.43714234 1.5777714 -0.07953022
-1.0963526 -0.325131 0.61207676 -0.04929421 0.48662645 -0.42879346 0.8133895 1.2538339
0.059770186 -0.31509826 -0.006270851 -0.2830843 -0.39885864 -0.6483082 0.22010468 -0.5248432
0.0015577442 -1.6058156e-06 -0.010308092 -4.921277e-05 -0.00021345999 -0.00181821 -0.0015443919 -0.0036402051
-0.013813715 -0.051149424 -0.0017195601 -0.003138816 -7.917245e-05 -0.0010373584 -0.0015716545 -1.47016e-08
-0.007417636 -0.00069323875 -0.018846786 -2.4019963e-11 4.315213e-05 -0.005764143 -0.00036651842 -7.121911e-05
-0.0053829993 -0.002672346 -8.2600715e-14 -0.010133118 -0.006763291 -0.0016835165 -0.00061885326 -0.019288914

module_8.weight f4 [12, 64]
00000000: 9e18 f4be 3532 0b3e 381a 013f 12f1 543e
00000010: d353 e93e 7c5c d6be 8533 c8be c302 99bf
00000020: c00b 8e3d eecd 233f c5c5 c83e 43da 39be
00000030: 3c4b b93d f585 a63e a192 f93e 144e 6b3d
00000040: cf60 03bf 96f3 e6bc 0b22 70bf c667 cf3c
00000050: d5c2 88be 5740 37be 94fb ca3e 808d 733d
00000060: 7316 b13d d26a 4fbe 9396 79bd 2de4 9cbe
00000070: a2f4 3cbe dd36 073c 9057 b3be d3c4 08bf
00000080: 50cb 723f 8617 023e c1d7 a23f 11dc 103f
00000090: 27e0 a0bf 00f7 89bf 1d6f 0bbf 9e0f c4be
000000a0: fdf7 9e3f 0c6d 993f 102f 833d 7dd0 40bb
000000b0: c9d7 f5be 3a1c 1cbf dee3 af3d 09e1 9c3e
000000c0: dd42 ee3f 6d1a 88bf b014 ae3d e15a f7bf
000000d0: 7efc 66bf c75a 783e 088c 6cba c8ee 97bf
000000e0: e54b 5ebb 2127 903c 7d0a 85be 159e 2a3b
000000f0: aefd 66bf bba9 21bf 7609 693d 4707 9539
00000100: 5ed2 8dbe c6ff 63be 82c2 243d 533a 82be
00000110: 1914 44be 8774 06bc 9ec4 b5be bb79 21be
00000120: 99b6 0e3f 7bb3 0f3f 7ba6 7e3d 1b6e 46bf
00000130: 4dc7 ab3d 4f91 1abd 4b99 843d 8885 47be
00000140: ea64 12bf 030f b6be e0bc dfbd 88c6 33be
00000150: 3a3d 41be edb6 62bf 18d4 f3bd 1bf4 d7bb
00000160: 331b e83e a8c0 3fbf 76f5 d43d 2334 49bf
00000170: 6408 6ebf fbd5 1abf ef85 723e 252e 40bf
00000180: 9a83 adbe 4c5f 1ebf be4e 89bf e840 dfbf
00000190: 33c3 e13e 72fa 5f3f 3340 9f3e f599 c23d
000001a0: 6d30 b5bf fa3b 1bbe badc e03e e810 433c
000001b0: ca92 933f 9c1d 7b3f ac38 4fc0 48f2 ab3e
000001c0: f897 16be 7e1f 943f e4e1 e0bd c6d6 923f
000001d0: 0803 183f 2acd 123d b483 9b3d 2b57 72bf
000001e0: 1ec4 0080 2c79 9f31 e72b 673e d2b8 4db1
000001f0: 745b 0e3f 389e 6f3f b1b8 b13e f19e 0229
00000200: 73d5 6abf f569 463e 5088 ba3e b81b d53e
00000210: eee1 873a 3e52 77be d04c 563f 8fad 063f
00000220: b47d 3bbe 3f96 df3d 1b98 06be 6da6 6b3d
00000230: 2445 5d3d f35d 83be 9c32 c6bd dc89 79be
00000240: 716f 4c3e 125a 373f 501f 423d 0eac 71be
00000250: fee1 47bf f6d8 863d 82f6 9ebd 19fd 953c
00000260: 4c18 16be 12e0 a73d 32bd c53e c733 29be
00000270: c21f 263e ded4 75be 865d 88bc be89 5c3e
00000280: 7b74 c8be be5d c63e 9d51 8fbf 35b5 43bf
00000290: 8561 4dbf 2235 fe3e cad8 883d 7f36 75be
000002a0: 72f4 ad3f 0741 a63f 401a 963f d332 303e
000002b0: 5d28 ca3e 7e21 2b3e 3897 0fbf 98a2 2d3e
000002c0: 9af9 21bf a7b3 c63d 9669 7fbd 7927 2ebf
000002d0: 050e f23e 0b05 b73e 2c5b 933c cd83 4ebd
000002e0: 1ebf ccb8 8e54 813b 3233 07bc aa06 0838
000002f0: 63a4 b83d 1252 f53d d70c 3d3e 9108 0ebb
00000300: b8b3 f83e 8c34 b7bb cff2 4d3d 17d6 ca3c
00000310: d8eb 5bbd 7d26 123e 5f88 db3d 912f 63be
00000320: e30c 313e 5abb 213e 8179 eb3d 870e a13e
00000330: 562e 7bbd 118d 5b3e 7e69 22bf 29a1 96be
00000340: 667d 313c 0a05 873d 88c2 3f3f b06a 163c
00000350: 9cf1 3d3f c42a c93e 4da4 96bd 20b3 ecbd
00000360: 84b0 a23e d742 d23e 7ac3 743e 6e64 663e
00000370: bdb5 fd3e d7b1 00bf 4fb6 c53e 5d2e c53e
00000380: d2ee 843e 33d1 28bf 615f 103e bcd2 473e
00000390: bf88 d4be d114 89bf 2846 023f 7009 89be
000003a0: a93a 99bf d0dc 81bf 26e6 5bbf 8d05 a63d
000003b0: 4d67 c83e b5e1 7fbe 8db3 2a3f 6a76 d9be
000003c0: 3b70 07bf 2b6c b6bf e5b0 4abc cbf6 b13e
000003d0: 6b95 9fbe 87a7 843e 589b b53e 7f1a 3f3f
000003e0: a068 65b9 f0bf 2eb8 5083 dabf c646 30bb
000003f0: e786 113f 32d9 e53e 13d2 adbf dbf2 bf38
-0.4767503 0.13593371 0.5043063 0.20795086 0.45571765 -0.41867435 -0.39101806 -1.1953968
0.06935835 0.639861 0.39213386 -0.18149666 0.09047553 0.32524076 0.4874468 0.057447508
-0.51319593 -0.028192323 -0.93801945 0.025318038 -0.26711145 -0.17895637 0.39645064 0.059461117
0.0864686 -0.20255592 -0.060934614 -0.30642834 -0.18452695 0.0082528265 -0.35027742 -0.5342533
0.9484148 0.12704286 1.2722093 0.56585795 -1.2568406 -1.0778503 -0.5446642 -0.38293165
1.241943 1.1986403 0.06405461 -0.0029421144 -0.48016194 -0.6098057 0.08588384 0.30640438
1.8614155 -1.0633065 0.085000396 -1.9324609 -0.9022902 0.24253379 -0.0009023552 -1.1869745
-0.0033919748 0.017596783 -0.25984564 0.0026034166 -0.90230834 -0.63149613 0.05689379 0.00028424917
-0.2769956 -0.22265539 0.04022456 -0.25435123 -0.19148292 -0.008206493 -0.3550157 -0.15769093
0.5574737 0.5613324 0.062170487 -0.7751176 0.08387623 -0.037736233 0.06474551 -0.19484532
-0.5718523 -0.35558328 -0.10924697 -0.17556202 -0.18871012 -0.8856037 -0.11905688 -0.006590379
0.4533325 -0.74903345 0.103983805 -0.7859518 -0.92981553 -0.6048276 0.23683904 -0.7507041
-0.33889467 -0.6186416 -1.0727155 -1.7441683 0.44094238 0.87491524 0.31103668 0.09502021
-1.4155403 -0.15159598 0.439184 0.011905886 1.1529171 0.98092055 -3.237834 0.33583283
-0.14706409 1.1572111 -0.10980585 1.1471794 0.59379625 0.03584019 0.0759348 -0.9466426
-7.0354e-41 4.6412847e-09 0.22575341 -2.9936484e-09 0.55608296 0.936008 0.3471122 2.900366e-14
-0.9173195 0.19376357 0.36432123 0.4162271 0.0010367015 -0.24152467 0.83710957 0.5260858
-0.1830967 0.10917329 -0.13143961 0.057531763 0.054021016 -0.25657615 -0.09677622 -0.24368995
0.19964387 0.7162181 0.047393143 -0.2360079 -0.7807921 0.06584351 -0.077618614 0.018309163
-0.14657706 0.08197035 0.38620907 -0.16523658 0.16223052 -0.24006984 -0.016646158 0.2153692
-0.39151368 0.38743395 -1.1196781 -0.76448375 -0.8022693 0.49649912 0.06681974 -0.2394657
1.3590224 1.2988595 1.1726761 0.17206888 0.3948392 0.16711995 -0.56090117 0.16956556
-0.63271487 0.09702235 -0.062356554 -0.6802898 0.4727632 0.35746035 0.01798781 -0.050418664
-9.7630764e-05 0.0039468473 -0.008251952 3.2431133e-05 0.09015729 0.11978544 0.1846193 -0.0021672586
0.48574615 -0.005590981 0.05028039 0.02476029 -0.053691715 0.14272495 0.1071937 -0.22186114
0.17290072 0.15794125 0.114977844 0.31456396 -0.061323486 0.21440531 -0.6344222 -0.2941983
0.01083312 0.06592758 0.74906206 0.00918071 0.7419679 0.3929044 -0.07355557 -0.11557603
0.31775296 0.4106662 0.23902693 0.22499248 0.49552718 -0.5027136 0.38615653 0.38511935
0.25963455 -0.6594421 0.14098884 0.19513983 -0.4151058 -1.0709478 0.508883 -0.26765013
-1.1971027 -1.0145512 -0.85898054 0.081065275 0.39141312 -0.24988444 0.6668022 -0.42473155
-0.52905625 -1.425176 -0.0123712765 0.347586 -0.31168684 0.25909063 0.3547008 0.74649805
-0.00021878118 -4.166359e-05 -1.7071323 -0.0026897653 0.5684647 0.4489227 -1.3579735 9.152825e-05

module_8.bias f4 [12]
00000000: 2618 26bf effd 233d 5051 47be 75f1 153f
00000010: 9ac8 c63e 524c b3bc e3fc 4b3d bfdf 9dbe
00000020: d781 fbbe b511 2e3f cc0b 40be 762d 843d
-0.648806 0.04003709 -0.19464612 0.5857156 0.38824922 -0.021886978 0.04980172 -0.30834767
-0.49122497 0.6799577 -0.187545 0.064539835
