models/8_model_64_window.pt (torch, 3687 bytes, 6 tensors)

module_1.bias f4 [8]
000000 25 67 b9 3f 48 d1 35 40 1c 96 39 3f 44 c1 90 bf
       1.4484602 2.8408985 0.72494674 -1.130898
000010 41 da 24 3e a9 56 7c bf 3f 23 32 bd bf 8d 14 be
       0.16098882 -0.9856973 -0.043490645 -0.14507197

module_1.lin.weight f4 [8, 3]
000000 a9 19 95 bf ed 27 94 c0 f6 bc f9 be 97 33 13 bf
       -1.1648456 -4.6298738 -0.48776978 -0.57500595
000010 f3 c2 91 be a1 f2 b0 bc fe 39 2c 40 46 ad 9a 3f
       -0.28469047 -0.02160007 2.6910396 1.2084129
000020 74 d2 d6 3f 8c 2b 25 be ec 88 7c c0 f1 cf ff 3f
       1.6782975 -0.16129893 -3.945857 1.9985334
000030 ab 52 3c be 02 9b 16 40 c4 d4 32 bf 70 be 79 c0
       -0.1839091 2.353211 -0.69855905 -3.9022484
000040 78 a0 55 3f 82 ea 3c bf 0a 66 89 3e 4b 7b 82 40
       0.8344798 -0.7379533 0.26835662 4.0775504
000050 70 ad 61 3b 78 d4 fe bb c1 b4 20 40 19 7a d7 3f
       0.0034435652 -0.007776793 2.5110323 1.6834136

module_3.bias f4 [8]
000000 f1 11 e3 3e 9e eb 08 40 20 18 04 bf 69 12 c5 bf
       0.44349626 2.139381 -0.5159931 -1.5396243
000010 50 75 25 3e 13 e1 43 bf 89 8f b3 be 4a 2f 79 3f
       0.16158032 -0.7651531 -0.35070446 0.9733778

module_3.lin.weight f4 [8, 8]
000000 c2 bc d9 bf d6 c7 a3 bd 31 d8 b2 bf 7a d6 b3 be
       -1.7010729 -0.079971 -1.3972226 -0.3512457
000010 07 6e c5 3f 1c e8 60 bf 1a f0 ce 3f 3f ad b3 3f
       1.5424203 -0.8785417 1.6167023 1.4037246
000020 67 a0 3f bf 30 73 19 40 3d 42 dc 3f 06 d2 02 c0
       -0.7485413 2.3976555 1.7207714 -2.0440688
000030 94 41 3d bf 26 55 af 3f b9 df 8b c0 35 6c bc be
       -0.7392819 1.369786 -4.37106 -0.36801305
000040 51 b2 a1 3e 62 88 f0 be 46 89 d9 3f e7 42 86 3f
       0.31581357 -0.46979052 1.6995018 1.0489167
000050 fd b2 07 c0 f1 d8 26 40 ff 97 af bf a6 6f 2b c0
       -2.1202996 2.606991 -1.371826 -2.6786895
000060 64 a9 86 bf 17 41 2f c0 e2 d8 00 40 a3 7d 96 bf
       -1.0520444 -2.7383478 2.0132375 -1.1757091
000070 82 48 91 3e fd 08 f8 3f 89 46 3a 3f 19 65 79 3d
       0.28375632 1.9377743 0.7276388 0.06088743
000080 fe 9b aa bf e3 14 dd 3e ed 47 84 bf ad b9 1e 40
       -1.3328855 0.43179998 -1.033445 2.4800828
000090 40 b3 6e 3f 2b 87 f5 bd bb b0 8b 3e 75 35 63 bf
       0.93242264 -0.11988672 0.27283272 -0.88753444
0000a0 9f a2 5b 3d 76 82 d0 bf 63 85 bd 3f c3 6a 39 c0
       0.053621884 -1.6289814 1.4806331 -2.8971412
0000b0 cc d6 1c 3f c6 49 3e 40 46 96 81 3f f1 7f c5 bd
       0.61265254 2.9732528 1.0123985 -0.096435435
0000c0 a8 77 1d be f3 6d 86 bf 31 47 02 bf b1 84 03 3c
       -0.15377676 -1.0502304 -0.5088988 0.008027242
0000d0 cc bb a5 3f 29 ed 80 bf bd 46 34 3f 4a c1 03 3f
       1.2947936 -1.0072376 0.7042044 0.5146681
0000e0 96 18 7e c0 12 97 8c 3f a2 2d 27 be 39 df a6 bf
       -3.9702506 1.0983603 -0.16326001 -1.3036872
0000f0 ee 3b e3 3e 07 c0 bd 3f 62 60 2e bf f0 f5 00 bf
       0.4438166 1.4824227 -0.6811582 -0.5037527

module_8.weight f4 [12, 16]
000000 45 39 ab 3f ef 0b e5 be 89 08 df be 48 1c e8 3e
       1.3376852 -0.44735667 -0.435612 0.45334077
000010 07 12 ff be c4 00 86 bf 1f fe 51 be 98 9b 02 bf
       -0.4981844 -1.0468984 -0.20507096 -0.5101867
000020 b7 39 90 bf 45 11 93 bf 36 f4 b6 bf e3 2e 0f 40
       -1.1267613 -1.1489645 -1.4293277 2.2372367
000030 f7 96 25 3f 7f 7a c0 3f d7 00 55 3e 9d e4 62 3f
       0.6468348 1.5037383 0.20801102 0.88630086
000040 59 b4 ea 3e 92 40 af 3e 5b c5 78 bf 95 82 33 3d
       0.4584072 0.3422895 -0.9717614 0.043825705
000050 e4 64 95 bf 14 bf 15 3f b9 5d bf bf 36 9e b6 be
       -1.1671414 0.5849469 -1.4950477 -0.3566758
000060 71 5e 25 c0 fc 0d c6 3f 86 55 68 3f d5 13 0d c0
       -2.5838892 1.5473018 0.907555 -2.2043355
000070 ff cc 90 bf f5 4a d5 bf ab 7f a0 be c8 e6 a5 bf
       -1.131256 -1.66635 -0.31347403 -1.2961054
000080 06 01 0a 3f 7a 13 b9 3e 21 69 2c bf 45 40 de be
       0.5390781 0.36147672 -0.67347914 -0.4340841
000090 95 48 29 be c0 e9 2c 3f b5 aa 2c 3f 9c a9 22 be
       -0.16531594 0.67544174 0.6744798 -0.15885013
0000a0 3a 89 85 be c2 bd cb 3e 45 5d bc bd 47 87 3a 3e
       -0.26081258 0.3979321 -0.09197477 0.18215667
0000b0 43 74 6b 3e 72 2a f2 3e 7a bb 99 bd 46 04 08 c0
       0.22993569 0.47298008 -0.075064614 -2.1252608
0000c0 9e 8d b3 bd 3a 6d a5 3e 87 65 9f 3f b6 bb 55 be
       -0.08767246 0.32309896 1.2452859 -0.20872387
0000d0 59 01 9d 3e 6f 3a b9 be fe 73 65 3e ac f3 85 3e
       0.3066509 -0.36177394 0.22407529 0.2616247
0000e0 93 89 fc 3e e9 d4 19 c0 ec 6a 44 3f cb 5d f3 be
       0.4932371 -2.40362 0.7672565 -0.47532496
0000f0 2b 15 f1 3e 86 f1 4f bf 42 93 22 bf 9c b5 92 3f
       0.47086462 -0.8122791 -0.6350595 1.1461673
000100 ca 83 9a be 99 64 54 3e f3 8b aa 3f 29 91 69 3f
       -0.30178672 0.207415 1.3323959 0.9123712
000110 0a f5 01 3f cf d9 1f be db d3 0f 3e d5 ce 09 3e
       0.50764525 -0.15610431 0.1404566 0.13457806
000120 79 eb bd bf d8 38 9b be 3e 40 8d bf f2 0c 74 bf
       -1.4837486 -0.30316806 -1.103523 -0.9533225
000130 e8 76 f1 3e dc 9e 83 3f d2 0a 34 3f f5 5b 83 3f
       0.4716103 1.0282855 0.7032901 1.0262438
000140 ef 88 19 c0 0c 36 2b bf 5d 8d b6 3e d5 b2 a7 3f
       -2.3989828 -0.66879344 0.35654727 1.310145
000150 97 2a 5c 3f 98 28 b6 bd 3b 73 69 bd 68 a8 0b bf
       0.86002487 -0.088944614 -0.056994658 -0.5455384
000160 b1 67 d2 3f bd 6b e7 bf 76 d5 0a 40 6e da 8a 3e
       1.6437894 -1.8079754 2.1692786 0.27119774
000170 e8 2d c7 3f 40 9d 16 c0 da dc 65 3e cb aa b1 3f
       1.5560884 -2.3533478 0.2244753 1.3880247
000180 d7 ba 69 bf fd 8e ae be ac b5 29 be 06 f2 1a 3f
       -0.9130072 -0.34093466 -0.16573209 0.6052555
000190 91 fb 1d 39 26 8f 80 3f b3 5e a2 be 55 5d c6 3e
       0.00015066403 1.0043685 -0.31712875 0.38743082
0001a0 36 9c dd 3e e3 f8 05 40 2d 92 5b be 7f 5e d8 bf
       0.43283242 2.0933158 -0.2144248 -1.6903838
0001b0 9d b1 37 be c5 08 25 bf 91 74 cd 3f 2d 62 ef bf
       -0.17938848 -0.64466506 1.6051198 -1.8701836
0001c0 94 bf 78 3f eb c5 cb be fb bc 05 bf ab cb 9b bf
       0.97167325 -0.39799437 -0.52241486 -1.217153
0001d0 09 e6 dc 3e d8 31 99 3e 6f 16 d1 bd 9e d9 4a bf
       0.43144253 0.2992084 -0.10209357 -0.7923831
0001e0 8f 52 33 3f 57 16 88 3d 31 a6 89 3f d5 b9 b9 be
       0.7004785 0.06644886 1.0753843 -0.3627459
0001f0 62 3c 5e bf 98 ca 19 be 4f c9 0c 3f dd bb 5d bf
       -0.86810887 -0.1501869 0.5499467 -0.8661478
000200 59 b1 d5 3f 9d 26 7d bf 29 e3 1d bf 1b 7b 9b bd
       1.6694747 -0.98887044 -0.61674744 -0.0759184
000210 bf c9 1d bf 69 f3 95 bf 41 64 8c 3e 8f 92 71 3e
       -0.61635965 -1.1714908 0.27420238 0.23591064
000220 64 fa 3c 3f 29 b9 00 c0 b1 b9 a6 3e 59 f1 3f 3f
       0.73819566 -2.0113013 0.32563546 0.7497764
000230 56 dd 1f be d0 56 c0 3e 00 a4 b6 bc b7 53 20 bd
       -0.15611777 0.37566233 -0.022294998 -0.039142337
000240 f2 6a 98 be 3e cb 12 3f 00 c9 5b bd c3 06 b4 be
       -0.29769093 0.5734137 -0.053658485 -0.3516141
000250 6b e6 54 3f 83 0a 90 3e 68 cc 3f 3f 11 01 cf 3e
       0.8316409 0.2813302 0.74921274 0.404305
000260 ed 51 4d 3f a0 41 46 bf 18 bb ab 3f 34 52 0a be
       0.80203134 -0.77443886 1.3416471 -0.1350792
000270 a9 08 33 bf b6 21 e2 bf 03 cc 80 bf 6b 49 49 be
       -0.6993509 -1.7666538 -1.006226 -0.19656913
000280 4b 8c 89 3f ee fc 19 3e 7a ee 01 bf 66 19 42 3f
       1.0745939 0.15037891 -0.5075451 0.75820005
000290 e3 5f 81 bd f1 25 60 bf f7 29 89 be 6f cd 8d be
       -0.06317117 -0.87557894 -0.2678983 -0.27695796
0002a0 1a bc 27 bf 8f 75 ae bf 91 f6 9f bf 9b b3 ca 3f
       -0.65521395 -1.3629626 -1.2497121 1.5836061
0002b0 f7 10 9a 3e f1 98 97 3f 57 12 37 be 9e 34 f0 3e
       0.30091068 1.1843549 -0.1787809 0.46915144
0002c0 ff 99 03 c0 73 95 1c 3f da 56 f9 3e d5 7f 24 c0
       -2.0562742 0.6116554 0.48699075 -2.5703022
0002d0 0d 62 08 bf 0f 68 8d 3f 66 29 cf bd 35 5b 15 40
       -0.53274614 1.1047381 -0.10115318 2.3336918
0002e0 1f bf d0 3e 06 0f 46 40 71 ef 06 c0 45 9b 0e c0
       0.40770814 3.094667 -2.1083643 -2.228227
0002f0 d5 8a ea bf eb d6 97 3e db 95 38 bf aa 43 f5 bd
       -1.8323618 0.29656157 -0.7210366 -0.119757965

module_8.bias f4 [12]
000000 aa 6d dc be d7 e4 a7 bc 4f 45 5b be be 09 f1 3e
       -0.43052417 -0.020494862 -0.21413158 0.47077745
000010 bc b8 2e 3d 53 32 8f be 63 a0 b6 bb 44 aa 25 bf
       0.042656645 -0.27968082 -0.005573319 -0.6471293
000020 28 0b 5b be 0a 9d 1b 3f 8f 5b 57 3c fb 1b 03 3f
       -0.21390975 0.607865 0.013144388 0.5121457
